agent-v0.pth (torch, 4647 bytes, 5 tensors)

0.weight f4 [64, 9]
000000 50 8f 84 be 3f 92 7d 3d 1a 65 59 be e2 bc 7c 3e
       -0.2589059 0.06190705 -0.21229973 0.24681428
000010 d5 9c 61 3d 8e 67 15 3e c8 4d 7c be 8c 9c 6f 3e
       0.055081207 0.14590284 -0.24639046 0.23399562
000020 16 2a 6e be 0a 9a a3 be af ed 7e 3e 85 18 9b be
       -0.23258242 -0.3195346 0.24895357 -0.30292144
000030 f7 83 82 be 60 41 f5 bd f0 54 c1 3a 79 7f 89 3e
       -0.25491306 -0.1197536 0.0014750045 0.26855066
000040 ec d4 f7 bd 75 a1 a7 be c0 b5 9b 3c 94 ce 8c be
       -0.121011585 -0.3274037 0.019007564 -0.27501357
000050 d0 86 be be 69 cc 2c be 03 5f f3 ba f1 58 23 3e
       -0.3721223 -0.16874851 -0.0018567744 0.15951897
000060 fb 9b 54 be 5d 31 3b be 4b 67 da bd d8 74 09 3e
       -0.20762627 -0.1828055 -0.10664233 0.13423479
000070 4a 47 19 3e 5b 75 3b be 78 20 e8 bd 00 51 bd bd
       0.14968601 -0.18306486 -0.11334318 -0.09243965
000080 be 9e 1a be 11 17 10 3e 5c 62 15 be e6 17 df be
       -0.15099618 0.14071299 -0.14588302 -0.4357292
000090 bc b2 a5 bb d8 f1 15 be 65 a1 ad bd 8d 86 e5 3d
       -0.005056707 -0.14643037 -0.08478049 0.11207304
0000a0 ca 15 07 3e 98 f5 0b 3e 2d 2d 46 3e bc 36 85 3e
       0.13191906 0.13667905 0.1935317 0.26018322
0000b0 6e a5 94 be f9 1e bd 3d 8d 41 d5 3d 7b 1e ee 3d
       -0.29032463 0.09234423 0.104128934 0.116269074
0000c0 97 bf 86 be 91 a8 97 bd bc 26 92 be 42 a6 65 3e
       -0.26318046 -0.07405198 -0.28545177 0.22426704
0000d0 69 5b 15 3d 3f fd 88 be 34 5a b2 3d a4 54 0f be
       0.03646413 -0.2675571 0.08708611 -0.13997132
0000e0 c0 d1 9d 3e 5b 66 70 be 88 8d 70 3e e0 60 6d bd
       0.3082409 -0.23476546 0.2349149 -0.057953715
0000f0 ef 2a 17 3e 23 8e 11 be 2c 2f 89 3e c8 f7 8e be
       0.14762472 -0.14214377 0.26793802 -0.27923417
000100 a4 e4 5f 3d 2f 4a df be ab eb da be c3 90 c4 3d
       0.054661408 -0.43611285 -0.42757925 0.095979236
000110 af 34 b1 3c e2 8b 0d be 85 d3 f7 bd 38 72 49 3e
       0.021631567 -0.13822892 -0.12100891 0.19672477
000120 45 d4 b1 be 58 1e 04 be 96 1e 38 3b 0d f5 f4 bb
       -0.3473226 -0.129022 0.0028094403 -0.0074755014
000130 82 22 1c 3e 02 e3 a3 be 14 4b bb bd 66 6c d0 bd
       0.15247539 -0.3200913 -0.091451794 -0.10176925
000140 20 89 fc bd 28 4f 34 be 60 f4 b8 3e 55 1c 15 3e
       -0.12330842 -0.1760832 0.36123943 0.14561589
000150 40 ae 56 be 5b d6 45 be 53 be 99 3e 72 1f 85 3e
       -0.20964909 -0.19320051 0.30028018 0.26000553
000160 91 d9 b7 be 1a e6 3a bd 8b d4 52 3e b0 2f ca bd
       -0.35908177 -0.0456296 0.20588891 -0.09872377
000170 6c fa 8d 3e aa e8 99 3e e8 10 60 3e 6a 89 11 bd
       0.2773012 0.3006032 0.21881449 -0.03553144
000180 ba ea 09 3f 88 b9 32 3e 2d 3a 34 be 54 da 66 3e
       0.5387379 0.17453587 -0.17600317 0.22544223
000190 25 7d 09 bd 9b d9 c0 bd 66 c6 98 be 3b ca 64 bc
       -0.033566613 -0.09416505 -0.29838866 -0.013964231
0001a0 ab a1 27 3e 70 33 56 be 8d b4 93 3e 22 c7 1b be
       0.16370265 -0.2091806 0.28848687 -0.15212682
0001b0 39 1e 99 3c e5 6a 88 3e 12 2c 2e bd b6 02 62 3e
       0.01869117 0.26644054 -0.042522497 0.22071347
0001c0 69 53 8f 3c 97 e9 04 3e de 5e e7 3c bf 9f 1a 3e
       0.017495828 0.12979732 0.028243478 0.15100001
0001d0 52 0b 57 ba 7a 69 ce bd cf 9f 8c 3e d7 93 c9 bd
       -0.0008203286 -0.10078712 0.27465674 -0.09842651
0001e0 35 7c b2 be 2e 85 48 be dc cb 8e 3e 81 6c c0 3e
       -0.34860387 -0.19582054 0.27889907 0.37582782
0001f0 5e 7d 97 bd ac 11 e5 bb cf d2 9c bd 63 08 93 be
       -0.07396959 -0.006990632 -0.07657396 -0.28717336
000200 b9 a3 05 be 21 e6 55 3e c5 40 75 be 7f fc 74 3e
       -0.13050736 0.20888568 -0.23950489 0.23924445
000210 17 39 72 3e 9c ac 1b bc 71 55 2d 3e fc 81 d5 3d
       0.2365459 -0.0095016025 0.16927125 0.10425183
000220 08 44 82 3e 60 d9 19 be bb 96 e2 bc c6 67 9f 3c
       0.2544253 -0.15024328 -0.027659765 0.019458663
000230 b0 e6 90 be 45 b5 b2 be ff 43 75 bd d7 a7 67 3e
       -0.28301 -0.34903923 -0.0598793 0.2262262
000240 ba 97 88 be 7f a9 42 bd d8 a0 5f 3e ce af 03 be
       -0.26678258 -0.047524925 0.21838701 -0.12860033
000250 be 1d 34 3e 36 33 65 3c 7d cf 7b bd 97 a7 ad 3d
       0.1758947 0.01398926 -0.061477173 0.08479231
000260 2a 7e 53 3e f6 ed e0 3b 86 83 d0 3c f2 0c e7 3d
       0.20653597 0.0068643047 0.02545334 0.11281766
000270 18 48 3c 3e 2e fd 88 3e 35 50 57 3e c7 f6 35 bd
       0.18386877 0.2675566 0.2102669 -0.0444248
000280 e9 69 c6 3d 15 6f 80 be 02 b3 ec 3d 12 b0 2e bd
       0.096881695 -0.2508475 0.115575805 -0.042648382
000290 8c 6d d5 bd 90 f0 55 be f1 1f bb 3e b3 d2 6c 3d
       -0.10421285 -0.20892549 0.36547807 0.057818126
0002a0 f8 f0 18 3e 16 95 7b 3e 36 27 f4 bd 71 c0 3b 3e
       0.14935672 0.2456859 -0.119215414 0.1833513
0002b0 b8 7d 51 3e 73 88 80 be 80 ef 47 be f9 a5 2e be
       0.20458114 -0.25104102 -0.19524956 -0.17055501
0002c0 c3 39 b0 3e 3b 57 2c 3e 41 ad d7 3b fa 15 b7 bd
       0.3441907 0.16830151 0.006581933 -0.089397386
0002d0 fa 74 e4 3e c7 b4 64 be c6 31 ed bd 94 9a 30 3e
       0.44620496 -0.22334586 -0.11581759 0.17246467
0002e0 a7 ae 24 3c 27 66 07 3e cc c7 7b 3d 46 c6 1c 3e
       0.010051406 0.13222562 0.061469838 0.1531001
0002f0 1f 45 99 3e 01 73 26 3b 32 8c c5 3d c7 36 99 be
       0.29935548 0.0025398138 0.09645881 -0.29924604
000300 a7 86 81 bd 3f 92 81 3e 43 ad 6c bc 25 d4 8a be
       -0.06324511 0.2530689 -0.014445606 -0.27114978
000310 09 75 a3 be aa 4b 91 be cf 45 1e 3e e8 23 79 3e
       -0.31925228 -0.2837804 0.15456317 0.24330103
000320 61 e3 89 3e 3c 01 80 3e 53 33 18 3c 8c 64 4b 3c
       0.2693129 0.25000942 0.00928958 0.012414109
000330 3f fb 00 3e 47 65 a7 be 4b d7 04 3d b1 d0 30 3e
       0.12595843 -0.32694456 0.032431882 0.1726711
000340 ba 22 e3 bd aa 4a 00 3e 29 0c 6e 3e 60 3a 17 be
       -0.11090608 0.12528482 0.23246826 -0.14768362
000350 a5 16 6f bc 0c 42 dd 3d c9 c1 4a be c6 44 c8 3e
       -0.014592801 0.10803613 -0.19800486 0.3911497
000360 79 1d 12 be 94 ac 3b 3e ec a2 2e 3e 75 b2 4a be
       -0.14269055 0.18327552 0.17054337 -0.19794638
000370 8d 21 a1 3d 3e ba d5 bd 1e 8f 9a be e9 29 61 bd
       0.078677274 -0.104359135 -0.30187315 -0.05497161
000380 fb 1e d1 3c 6d 10 bb bd 42 38 48 3e f8 2e ab be
       0.025527468 -0.09133992 0.1955271 -0.33434272
000390 12 4b 7b 3e 42 78 ba 3c 85 23 2c 3d 50 f0 75 be
       0.24540356 0.022762422 0.04202606 -0.24017453
0003a0 e2 4b 81 be b8 0d af bc 51 ee 99 3e 32 b5 ef 3e
       -0.25253206 -0.021368846 0.30064633 0.4681793
0003b0 ce 16 1f be 6f df 38 bd c6 a7 2c bd 2e 21 11 3e
       -0.15536043 -0.045134958 -0.04215219 0.14172813
0003c0 ca 21 ad be 59 16 72 be 76 82 90 bd 22 03 5e be
       -0.33814842 -0.23641337 -0.070561334 -0.21680883
0003d0 46 09 a5 3e 1b 7f 96 3e 4f 9b da 3e f7 5d f5 3d
       0.32233638 0.2939385 0.42696616 0.11980813
0003e0 09 81 fb 3e 79 9f 10 3e e2 a9 38 be 04 c8 92 be
       0.49121884 0.14123334 -0.18033555 -0.28668225
0003f0 ba 51 a2 3e a4 00 91 bd 4e 8b 92 bc 3c 6e 9b be
       0.31702977 -0.070802 -0.017888691 -0.3035754

0.bias f4 [64]
000000 ec be 55 3e b0 92 43 bd 8c f2 7e be 8b 69 84 bd
       0.20873612 -0.047747314 -0.24897212 -0.06465443
000010 b1 41 d2 3d f3 2d 69 3d a2 b7 f2 3d b2 2b 3f 3e
       0.10266436 0.056928586 0.118514314 0.18669012
000020 00 c5 59 3d ef cc 15 3e 5a 7c cd bc 8d 63 54 3e
       0.05316639 0.14628957 -0.02508371 0.207411
000030 ae b9 4c be 6a e5 9e 3e 74 f8 f9 bd b9 7c d0 bd
       -0.19992706 0.31034404 -0.12205592 -0.10180039
000040 f2 a2 25 3b f3 d6 2a bd 0d d5 91 be 4f 9a 37 3e
       0.0025274125 -0.041708898 -0.28482857 0.17929958
000050 d8 ac a0 be e9 85 2b 3e c8 15 f1 3d 5d 4d d0 3a
       -0.3138187 0.16750301 0.117717326 0.0015892197
000060 24 56 80 be 8c f5 f1 3c ff 6c 97 3e b9 2f 74 3e
       -0.2506572 0.029536031 0.29575345 0.2384633
000070 83 1d 36 3d 8b 32 26 be 57 6a f2 bd fc cc 23 3e
       0.04446174 -0.16230218 -0.11836689 0.15996164
000080 8b 1f a4 3e 6b 3f 9c be 52 35 84 be 3a ef 70 3e
       0.32055315 -0.30517134 -0.2582193 0.23528758
000090 f9 15 16 be 08 c1 3c 3e 36 de 30 bc 9f b7 9e 3d
       -0.1465682 0.1843301 -0.010795167 0.07749867
0000a0 5d e2 88 be 70 54 9d be c0 fc b5 3d 2f bd 56 bb
       -0.267352 -0.30728483 0.08886099 -0.003276657
0000b0 f1 22 22 3e 9f aa 63 3e ea 4d 01 bd b7 f2 25 3d
       0.15833642 0.22233056 -0.031568445 0.040514674
0000c0 2b 01 77 3d 9b 59 5a be 69 21 a0 3e 60 54 0a 3e
       0.06030385 -0.21323244 0.3127549 0.13508749
0000d0 d7 74 17 3e f6 d0 a5 3e 79 f3 72 3d d2 3a 9d be
       0.14790665 0.32385987 0.059314225 -0.3070894
0000e0 0b 4c 4d 3e be 62 0c 3d f3 af 09 be f1 54 86 3e
       0.2004854 0.034273855 -0.13446026 0.2623668
0000f0 69 9f 72 bd f2 80 79 3e 97 48 50 be 6b 36 6b 3e
       -0.059234057 0.24365595 -0.20340191 0.22969978

2.weight f4 [3, 64]
000000 a8 9a bf bd 89 1f 6c bb b0 aa 29 3e b3 98 bf bd
       -0.0935567 -0.0036029539 0.16569018 -0.09355297
000010 c0 d1 e6 3c 85 74 1b 3d c6 55 2c bd d7 71 42 be
       0.028176188 0.03795292 -0.042073987 -0.18988739
000020 75 89 53 3d 00 32 6f 3e 5b be 67 3e ba b7 ae bd
       0.05164476 0.23358917 0.22631209 -0.08531137
000030 d0 4a 10 bd da 81 97 3e a9 54 e3 bc 81 bb bb bd
       -0.035227597 0.29591256 -0.02775033 -0.09166623
000040 18 1f ec bd ec 3d 93 3d e5 da 2c 3e 70 f1 2e 3e
       -0.11529368 0.07189545 0.16880377 0.17084289
000050 9d f3 4b bd 34 16 19 3e 66 76 81 bb 41 21 17 be
       -0.049792875 0.14949876 -0.003950882 -0.14758779
000060 d4 7c e2 bd 77 c3 04 3d ae fb b0 3c 19 6e d5 3c
       -0.11058965 0.032412972 0.021604385 0.026053475
000070 03 14 06 3e 57 7d 9e 3c 3e be 1b bd 5e de 1c 3e
       0.13093571 0.019346876 -0.038023226 0.15319201
000080 31 d7 18 be cf f8 44 be e9 0a d0 3d 3a 74 2d 3b
       -0.14925839 -0.19235538 0.10158331 0.0026466982
000090 3b 27 13 bd ca 5d 7c bd 9f 92 01 bd aa e2 92 bd
       -0.035926085 -0.06161288 -0.03163397 -0.07172139
0000a0 43 76 83 3c ec 42 c4 bd da bc 1d 3c 11 97 0d bb
       0.016047603 -0.09583077 0.009627545 -0.0021604935
0000b0 a5 e5 54 3e 69 bb 1c bd 81 84 3f bd f1 fd f8 bd
       0.20790727 -0.038264666 -0.046757225 -0.121578105
0000c0 e3 07 63 3e 8b 11 f6 3d ac 74 0c 3e 27 f2 d8 3d
       0.22170977 0.12015065 0.13716382 0.10593062
0000d0 33 2b 43 3e 4d 6f 9a 3e 82 97 02 3d 98 d6 22 3e
       0.19059448 0.3016304 0.03188277 0.15902174
0000e0 e4 56 3d bc e0 9b d7 3d 8d d7 c2 3c c4 72 b1 bd
       -0.011556361 0.10527778 0.023784423 -0.08664468
0000f0 44 fd 06 be 7c 32 58 3e e1 df 87 3e 09 d0 8d 3e
       -0.1318255 0.21113008 0.26537994 0.2769778
000100 92 56 0f bd 03 bd 02 3c 1b 05 ec bd 37 99 e6 3c
       -0.03499467 0.007979634 -0.11524411 0.02814923
000110 89 21 c4 3d e2 f4 99 3d 5f 56 f0 3c b7 47 a8 3d
       0.09576709 0.07517411 0.02933806 0.082168035
000120 24 27 91 bc 92 a3 8c bd 6a 05 ed 3c 9d 10 23 3b
       -0.017718859 -0.06867136 0.028933246 0.0024881728
000130 c3 ef c6 bd 2c 58 f0 ba cc ee f3 bd 9b c3 e6 bc
       -0.097137 -0.0018336824 -0.11910781 -0.028169444
000140 ad 69 ee bb f2 20 35 bd 88 21 cb bb fe e1 e3 bc
       -0.007275781 -0.044220872 -0.0061990656 -0.027817722
000150 6d 83 4c 3e 48 fe a2 3a 2d 7d 27 be 60 76 95 bd
       0.1997201 0.0012435401 -0.16356345 -0.07297969
000160 86 5c 06 3e 00 43 f7 3c d6 34 c0 be 66 84 6c be
       0.13121232 0.030183315 -0.3754031 -0.23097381
000170 03 d6 0c be 97 28 b7 bc d0 ca 84 bd 36 97 05 be
       -0.13753514 -0.022358222 -0.06483996 -0.13045964
000180 db 7a f2 bc 53 95 6c 3d eb 1b 96 bd 44 c6 75 be
       -0.029599598 0.057759594 -0.07329544 -0.24001414
000190 5e d5 52 3e e5 fd e4 3d 48 f9 82 be 19 03 a4 bd
       0.20589206 0.11181239 -0.25580812 -0.08008403
0001a0 71 ba d0 3d 8d 87 13 3e 03 3d 05 be 3a 88 0d 3e
       0.10191811 0.14407177 -0.13011555 0.13821498
0001b0 92 2e 64 3b 77 d6 51 3d 31 e5 97 3c c7 43 a4 3e
       0.0034817797 0.05122992 0.018541904 0.3208296
0001c0 1c ac 31 3e 66 a3 98 bd de 4b 50 3e de a9 16 be
       0.17350811 -0.07453041 0.20341441 -0.14713237
0001d0 84 aa 1e 3d c0 8c cb b9 3b ed 56 3e ca 43 18 3b
       0.038736835 -0.00038824044 0.20988934 0.0023233765
0001e0 7f cd 3d bd 5e 65 e7 3b dd d6 a0 3d 3e 93 3c 3e
       -0.046338554 0.0070616445 0.07853482 0.18415543
0001f0 97 d2 ad be c7 0c ae 3b 71 e2 4a 3c 95 11 e9 bd
       -0.3394973 0.005311582 0.012383089 -0.11380307
000200 69 e8 9c 3c 80 b8 49 bd d1 84 2f 3d 0b b7 0c 3e
       0.01915379 -0.04924822 0.042851273 0.137417
000210 d0 2f 2b be ce e4 b6 bd 68 95 86 3c 52 89 ea 3e
       -0.16717458 -0.0893036 0.016428664 0.45807892
000220 7a 4a f5 bd fe d4 9d bd 59 16 78 3d b7 86 97 3d
       -0.11977096 -0.07706641 0.060568187 0.07398742
000230 ac 45 0b be 22 30 28 be 1b d5 30 be 56 93 0f be
       -0.13600796 -0.16424611 -0.17268793 -0.14021048
000240 5c 33 1d bd 0b 0c a2 3c 1f 51 89 3d cc 1b 47 be
       -0.03837906 0.019781133 0.06704926 -0.19444197
000250 8b 00 4e 3e 30 0d 80 39 48 8d 0f 3e 31 0a 8b 3d
       0.20117395 0.00024423888 0.14018738 0.06789053
000260 e4 75 7d 3d fb b0 d8 bd 54 48 3b be ec f4 e7 be
       0.061880007 -0.10580631 -0.1828931 -0.45304048
000270 53 24 9d 3e 16 a2 40 bc 0e dd 08 be 7e 6a 60 3d
       0.30691776 -0.011757394 -0.13365576 0.05478906
000280 c8 1f c4 bb 54 a7 af bc 2d ec 16 bd 3d 5a 4d 3e
       -0.005985234 -0.021442093 -0.03684633 0.20053954
000290 a2 7f dc 3e d4 24 f8 bd 84 a6 89 be 88 c6 90 3d
       0.43066126 -0.121163994 -0.26884854 0.07069117
0002a0 eb 42 8f 3d e1 9f 89 3d 57 00 c3 3d 45 3e 36 bd
       0.069951855 0.067199476 0.09521549 -0.04449298
0002b0 1b 65 c4 3d e5 9c fd bc e8 cd 1b ba c2 d0 79 3e
       0.09589597 -0.030958602 -0.0005943463 0.24396041
0002c0 c5 8f e6 bc bb 87 c7 bd ec 28 98 bc fb f2 f2 3d
       -0.028144727 -0.097426854 -0.0185742 0.11862751
0002d0 19 5b 1d be d0 dc 66 3d 6c 61 04 bd b8 52 23 be
       -0.15366782 0.056362927 -0.03231947 -0.15949523
0002e0 0f 32 30 3c b0 c8 b2 3e b6 62 92 3d 5b 27 4e be
       0.010754122 0.34918737 0.07147734 -0.201322
0002f0 57 66 a9 3d ec 3f b4 be 56 57 a6 be 81 17 8a be
       0.08271473 -0.3520502 -0.32488507 -0.26971057

2.bias f4 [3]
000000 f5 3a a7 3d 83 43 ae 3c 55 51 4d 3d
       0.08165542 0.021272426 0.050126392

logstd f4 [3]
000000 a8 36 fd 3e ec 7a df 3d c5 11 2d be
       0.49455762 0.10912117 -0.1690131
