agent.pth (torch, 42756 bytes, 9 tensors)

conv1.weight f4 [8, 4, 5, 5]
000000 13 1b 77 bd 38 85 9b bd 40 b7 4f bb 37 f9 44 bd
       -0.060328554 -0.07593769 -0.003169492 -0.048089232
000010 12 c1 6c 3d 5d e4 57 bd 90 4b 9c bd 9a 6b 7d 3d
       0.057801314 -0.05270802 -0.076316 0.061870195
000020 f6 d3 65 3d c0 51 62 bd 11 14 a5 3d 7e db 82 bd
       0.056110345 -0.055253744 0.08060468 -0.06389521
000030 46 e4 40 3d f4 77 b5 bc e9 36 c6 3d ea 8f 1a 3d
       0.0470927 -0.022151925 0.09678442 0.037734903
000040 02 cb c2 bd 22 c1 75 3d 30 2e 0d bd 56 30 32 3d
       -0.09511377 0.05999864 -0.034467876 0.043503128
000050 1f 58 af 3d 7f 36 af bd fe dd 64 3d c1 dd bc 3d
       0.0856173 -0.08555316 0.05587577 0.09221984
000060 ea d4 ab bd 28 0d 92 bd c0 ee 50 3b 2e 75 1b 3d
       -0.083902195 -0.071314156 0.0031880587 0.037953548
000070 6b 0f c7 bd 55 dc ba bd 20 ef 69 bd 70 34 1d 3c
       -0.097197376 -0.09124056 -0.057112813 0.009595022
000080 00 8e 65 bd a0 75 c3 bb c2 25 b3 bd 89 90 a3 3d
       -0.056043625 -0.0059649497 -0.08747436 0.07986552
000090 e8 df 1a 3c a0 df 52 3b 00 99 60 bb 6c 78 c8 bc
       0.0094527975 0.0032176748 -0.0034270883 -0.024471484
0000a0 a2 18 24 3d c2 29 67 3d 18 e9 b0 bd c7 36 c9 3d
       0.040062554 0.056436308 -0.08638209 0.09824901
0000b0 1a 7a 6f 3d 4b 1b bd bd 00 dd de 3b 0e 41 79 3d
       0.058466054 -0.09233721 0.0068012476 0.060853057
0000c0 aa 99 b4 bd b3 ff 90 3d 5e 99 11 3d 43 71 b4 3d
       -0.088183716 0.07080021 0.035546653 0.088106655
0000d0 95 8e c7 bd 4a 38 6c bd 66 cc 97 bd 5d 39 c2 bd
       -0.09743992 -0.05767087 -0.07412033 -0.094835974
0000e0 90 ef 14 bc 90 4a c1 bd a0 f6 93 bc e6 0d 0b bd
       -0.009090319 -0.0943805 -0.018061936 -0.0339488
0000f0 a3 8d ca 3d 48 fc c9 3c 17 e2 c1 3d 20 fb cd bc
       0.09890296 0.02465643 0.09466951 -0.02514416
000100 c7 f2 9d 3d 49 b2 c6 3d 68 06 54 3c 05 28 86 3d
       0.07712322 0.09701974 0.0129409805 0.06550602
000110 e9 c0 c2 3d da b4 48 bd 4d 78 bb 3d b9 09 98 3d
       0.09509451 -0.0490006 0.09153805 0.074237294
000120 92 4a 07 3d 00 8e 13 bc 37 3b a1 3d b4 b8 9a 3c
       0.0330301 -0.009006023 0.078726225 0.018886901
000130 a0 5f 84 bc f4 e8 e6 3c f0 a0 01 bc bd 81 a1 bd
       -0.016158879 0.028187253 -0.007911906 -0.07886074
000140 25 5a 96 bd b6 58 46 3d e8 7a b9 bd ed e0 be 3d
       -0.073414125 0.048424445 -0.09056646 0.09320245
000150 51 37 b6 3d 62 46 1c 3d d2 c5 8c bd c0 f8 bb bd
       0.088972695 0.03815306 -0.06873669 -0.09178305
000160 d0 6d 02 3c 8a 2f 27 3d 9c aa dc 3c 0c ac e6 bc
       0.007960752 0.04081682 0.026936822 -0.02815821
000170 be 21 00 3d 14 61 81 bd c3 a1 87 3d f9 6e ca 3d
       0.03128218 -0.06317344 0.066226505 0.098844476
000180 8c fd b1 bc 83 64 50 bd 07 e4 57 bd 7e 7b 6f 3d
       -0.021727346 -0.050877105 -0.0527077 0.05846738
000190 92 61 58 3d 57 66 ad bd d1 c9 a4 3d ea d2 05 3d
       0.052827425 -0.084667854 0.08046306 0.032671846
0001a0 5d 1f b6 bd 82 88 10 3d 81 10 94 3d 5e ab 87 bd
       -0.08892701 0.035286434 0.0722971 -0.066244826
0001b0 f2 52 91 bd f9 fc ba 3d c5 4a af bd 49 bc 9f 3d
       -0.07095899 0.09130282 -0.08559183 0.077995844
0001c0 13 2e a7 bd 7a 9a 1c 3d 40 92 28 3b 74 a3 01 bd
       -0.08163085 0.038233258 0.0025721937 -0.03165002
0001d0 40 34 2e 3b 34 58 dd 3c 40 82 58 bb 56 59 05 3d
       0.0026581436 0.027019598 -0.003303662 0.0325559
0001e0 0d 8d a2 3d 75 54 89 bd 23 a3 37 bd 02 23 2f 3d
       0.079370596 -0.06705562 -0.044833314 0.042757995
0001f0 f8 ae a1 bc e9 cd bb 3d d0 ed 45 bd 69 c9 90 3d
       -0.019736752 0.091701336 -0.0483225 0.07069666
000200 b2 80 73 3d 3b 71 c8 3d 9a b7 93 bd d3 c8 8f bd
       0.059448905 0.09787222 -0.072127536 -0.07020726
000210 14 e2 e0 3c fe 37 8c bd 7d 0d 74 bd 00 f9 b7 bb
       0.027451552 -0.06846617 -0.059583176 -0.0056144
000220 36 18 0c 3d 16 a1 42 3d 1f e7 95 3d 8d 01 42 bd
       0.034202777 0.047516905 0.073194735 -0.04736476
000230 c0 c8 41 bc 00 7a 62 3c e8 1f 47 3c 35 6f b1 bd
       -0.011827648 0.013823032 0.012153603 -0.08663789
000240 6d 97 b9 3d 96 cc 7b 3d 2d ef 94 3d 10 1a 71 3c
       0.09062085 0.061474405 0.07272182 0.014715686
000250 95 ff 97 bd 11 67 c8 3d 7d 0f b3 bd 56 8f 6b 3d
       -0.07421795 0.09785283 -0.087431885 0.057509743
000260 a8 59 19 3c 00 5e 76 bb 88 38 b8 bd 98 39 97 bc
       0.009359755 -0.003759265 -0.089951575 -0.01846008
000270 66 a4 0e 3d 7a 93 66 3d ad f0 7d bd b7 a8 39 bd
       0.03482475 0.05629299 -0.061997104 -0.045326915
000280 68 40 9f bd a9 e8 81 3d e0 31 8c bc 28 b8 90 bd
       -0.077759564 0.063432045 -0.017113626 -0.07066375
000290 a9 d3 85 3d 14 e7 85 bc 83 20 9e bd 3e 4a a0 bd
       0.065345116 -0.016345538 -0.07721045 -0.078266606
0002a0 80 3a bf 3b c0 df 4b bc 82 c1 20 3d fb 96 80 3d
       0.005835831 -0.012443483 0.039247043 0.06278797
0002b0 60 8f bb bd 40 ff 35 bc 62 31 03 3d bb d4 9d bd
       -0.09158206 -0.01110822 0.032029517 -0.07706591
0002c0 50 68 e4 3b 1b ad 99 3d f9 23 ae 3d 68 fb 1b bc
       0.006970443 0.075037204 0.08502955 -0.009520389
0002d0 92 25 66 3d 0c 75 b9 bc 4c 81 db 3c 2c d3 b5 bc
       0.056188174 -0.02263882 0.026795052 -0.022195421
0002e0 00 ab c2 3c d2 95 0a 3d 4a 4f ab bd 08 2a 8e 3c
       0.02376318 0.033834286 -0.083647326 0.017354026
0002f0 80 95 fb 3a 08 4b 8c 3c 99 e4 c0 3d 56 b1 0c 3d
       0.0019194335 0.017125621 0.094186015 0.03434881
000300 7b 2a 87 3d 30 e4 16 bd b5 4f ab bd a5 6e a0 bd
       0.065998994 -0.03683871 -0.08364812 -0.07833604
000310 50 92 10 bc 91 1d 8e 3d bd d3 30 bd 65 3d b4 bd
       -0.008823946 0.06939233 -0.04317068 -0.088007726
000320 ca 58 b9 bd 8e fa a1 bd 48 f8 8c bd 9a 22 75 bd
       -0.09050138 -0.07909118 -0.068832934 -0.05984745
000330 2c 0c ba 3c 45 29 b0 bd 82 0d 22 3d 14 f8 8c 3c
       0.022710882 -0.086016215 0.039563663 0.017208137
000340 f0 84 43 bd c3 9d 93 bd 56 1a 61 3d ba 07 27 bd
       -0.0477342 -0.07207825 0.054956757 -0.040778853
000350 17 b9 c7 bd 00 60 33 b9 8f 55 8f 3d 14 db de 3c
       -0.097521 -0.00017106533 0.06998741 0.027204074
000360 49 03 a5 3d c0 32 b8 bd 38 f5 e5 bc c0 e2 dc 3a
       0.08057267 -0.08994055 -0.028071031 0.0016852245
000370 c2 bb c8 bd 00 5a 89 ba 27 25 43 bd 49 d1 8e 3d
       -0.09801437 -0.0010479093 -0.047642853 0.06973512
000380 fa 94 33 3d 83 b0 b1 bd a0 4f a1 bd ad 91 9e 3d
       0.043843247 -0.08676245 -0.078765154 0.07742629
000390 50 e5 ed 3b a5 b8 8d 3d f0 e6 77 bc c0 ec 5a 3c
       0.007260002 0.06919984 -0.015130743 0.01336211
0003a0 22 c9 2f 3d b3 ce 6a bd a0 d5 8f bb 2a ac c5 bd
       0.042916425 -0.05732603 -0.0043894798 -0.09651978
0003b0 c0 c8 97 3c 0e 63 8f bd d0 28 66 3c ee 86 6c 3d
       0.018528342 -0.07001315 0.014047816 0.057745866
0003c0 d0 03 0a bc b1 37 8a 3d 5f 79 bb 3d 00 fd f3 bb
       -0.0084237605 0.067489035 0.09154009 -0.0074459314
0003d0 60 ad 19 3b 40 21 aa 3c cf a2 b7 bd 35 43 c8 bd
       0.0023449287 0.020767808 -0.089666 -0.09778444
0003e0 8c b6 e9 bc c0 a5 4a bd 70 d5 4e 3c 72 22 1d 3d
       -0.028529428 -0.049474478 0.01262413 0.038362928
0003f0 b0 89 cf bb a3 36 a7 3d ba a1 21 bd 2c e3 86 bc
       -0.0063335523 0.08164718 -0.039460875 -0.016465746

conv1.bias f4 [8]
000000 21 4c c3 3d 40 29 f0 3a 25 7e 82 3d f7 35 a9 3d
       0.09536005 0.001832284 0.063717164 0.08262246
000010 d8 b2 1f 3c 2f 10 b5 bd 1f b7 88 3d e0 cd de 3b
       0.0097472295 -0.088409774 0.066755526 0.0067994446

FC1.weight f4 [1, 8192]
000000 bd 88 00 3c 10 e9 af 3a 47 c1 b0 bb 30 b8 26 bb
       0.007845101 0.0013420898 -0.005394134 -0.0025439374
000010 c0 c9 ff 39 c0 1c 8d 3b 49 1d 02 3c 05 e8 d2 bb
       0.00048787706 0.004306406 0.007941552 -0.0064363503
000020 fd e7 fe bb 7f e0 bd bb 45 03 0d bc 72 33 1a bc
       -0.00777912 -0.0057945843 -0.008606737 -0.00941168
000030 a8 e0 96 3a 04 d4 b2 bb 3b ac 28 3c 50 b0 ff bb
       0.0011511045 -0.005457403 0.010294969 -0.0078030005
000040 be c3 bb 3b d8 29 32 3b c8 1a 8d ba d0 c7 57 3a
       0.0057301214 0.0027185585 -0.0010765428 0.00082313735
000050 c2 74 c0 bb e4 ec 2e bc 73 83 e2 bb 71 ac 1d 3c
       -0.0058732936 -0.010676596 -0.0069126426 0.009623633
000060 b5 77 85 bb 92 ef a9 3b 09 9e 28 3c 34 30 cc bb
       -0.004073108 0.0051860297 0.010291585 -0.006231332
000070 0e ea f3 3b 61 a3 8a bb b2 67 da bb 80 b1 c1 3a
       0.007443673 -0.004230902 -0.0066651935 0.001477763
000080 4b f5 a1 bb 60 9f b8 ba 0f 3e 87 bb 52 66 6e bb
       -0.0049425713 -0.0014085583 -0.004127271 -0.0036376906
000090 91 06 00 3c 60 a5 7d 3b 00 81 5b bb 93 76 a4 bb
       0.007814066 0.0038703308 -0.0033493638 -0.005019018
0000a0 c8 f0 6a bb 93 c7 e2 bb 9e bb f5 3b 05 b0 05 3c
       -0.0035849083 -0.0069207638 0.0074991724 0.008159642
0000b0 95 db 09 bc 02 8f b9 3b b1 04 04 3c 48 ea cf 3a
       -0.008414169 0.0056628 0.008057759 0.0015862668
0000c0 e8 ab 38 3b ae 75 2d bc 60 05 5d ba d1 96 14 3c
       0.0028178636 -0.010587139 -0.0008431282 0.009069161
0000d0 f8 44 5e 3b e4 f8 16 bc e0 d0 27 bb 28 26 92 bb
       0.003391562 -0.009214614 -0.0025606677 -0.004460115
0000e0 40 30 2d 3b 7f 9f 27 3c 9b 12 2b 3c b5 87 c8 bb
       0.0026426464 0.010230898 0.010441448 -0.006119693
0000f0 27 43 2a 3c 00 6e 28 39 30 c7 5b 3b bb e2 15 bc
       0.010391987 0.00016062707 0.0033535473 -0.009148295
000100 2f 07 32 3c 83 11 e3 bb 00 e8 38 bb 1c f5 94 3b
       0.0108659705 -0.006929578 -0.0028214455 0.004545821
000110 f8 b0 1a 3b a8 12 8a bb b6 1e f7 bb 90 72 1d ba
       0.0023604017 -0.00421365 -0.007541503 -0.0006006146
000120 a4 0c 27 bc e6 34 dc 3b 36 8b df bb 1b c2 2a 3c
       -0.010195885 0.006720173 -0.006822015 0.010422255
000130 43 d7 32 3c 10 22 50 ba 3e cd 86 bb 7f 61 08 bc
       0.01091558 -0.0007939646 -0.0041138222 -0.008324026
000140 f8 6f 1b bc 35 d8 27 3c 86 75 df bb f0 96 29 bc
       -0.009487145 0.010244419 -0.00681943 -0.010350928
000150 c8 06 d1 bb 78 ca e6 3a 2d 3c a3 bb 45 98 96 bb
       -0.006378982 0.0017607948 -0.0049815387 -0.0045957887
000160 3b ec 0b 3c b7 c2 31 3c 9a 29 d7 3b 90 8e 4c ba
       0.008540208 0.010849646 0.0065662386 -0.0007803226
000170 eb e9 d5 bb 59 5d 14 3c 68 57 54 3b 3e 25 a9 bb
       -0.0065281293 0.009055459 0.003240073 -0.0051619103
000180 76 d8 af bb 6b 51 1e 3c e4 55 69 3b 08 33 b5 3a
       -0.0053663803 0.009662966 0.0035604173 0.0013824413
000190 6e 7f a8 3b 41 22 1c 3c 3b 05 0b bc e8 2f 98 3a
       0.005142144 0.009529651 -0.008485134 0.0011610957
0001a0 66 f4 fe 3b 6e 84 e9 3b 75 44 1d 3c d2 e3 9e bb
       0.0077805994 0.0071263826 0.009598841 -0.0048489356
0001b0 bc 7b 55 3b 87 e1 1f bc 52 1d a6 3b 64 2e 73 3b
       0.0032574972 -0.00975836 0.005069413 0.0037106508
0001c0 e0 a0 91 3a 56 af fa 3b 06 53 13 bc 4c fa 1a bb
       0.0011110567 0.007650296 -0.008991962 -0.0023647724
0001d0 f8 11 fd ba 5e db c2 bb 57 78 b9 bb ac 6b ae bb
       -0.0019307723 -0.0059465608 -0.0056600976 -0.005322894
0001e0 f0 76 0c ba 45 2e 2a bc 10 20 96 3a ea f1 bd 3b
       -0.0005358299 -0.010387008 0.0011453647 0.0057966607
0001f0 38 45 c0 ba 52 15 99 3b 80 cd 84 39 b8 ff b5 3a
       -0.0014669066 0.004671731 0.0002533011 0.0013885414
000200 58 66 dc ba 87 eb 23 3c cf e3 11 3c aa 3a 05 bc
       -0.0016815169 0.010004885 0.008904411 -0.008131662
000210 2e bd 1a bc 6a 88 dc 3b ae 78 96 bb 42 d0 b1 3b
       -0.009444518 0.006730129 -0.004592023 0.0054264376
000220 79 59 25 3c 0c 2c 72 bb b0 76 77 ba 76 01 fe 3b
       0.010092133 -0.0036952524 -0.0009439988 0.007751639
000230 68 a5 f4 bb 9c 65 4c 3b 36 a0 ac 3b 2b c8 93 bb
       -0.007466007 0.0031188494 0.005268122 -0.004509946
000240 1c 82 16 bb 0d 84 1c bc 34 98 2e bc 70 8b ad ba
       -0.0022965735 -0.009552968 -0.010656405 -0.0013240408
000250 c0 42 91 3a 58 d6 27 3b c0 da cc bb 50 4b 4b ba
       0.0011082515 0.0025609937 -0.006251663 -0.0007755058
000260 93 41 f8 bb 3e 11 0d bc 48 5d fd ba 7b f3 b0 bb
       -0.0075761764 -0.008610068 -0.0019330168 -0.005400119
000270 7c 9f 11 bb 38 bd 17 3b 32 ad 0b bc 2a 09 65 bb
       -0.0022220304 0.0023153555 -0.00852518 -0.003494809
000280 02 c9 e7 3b 2e b3 fa 3b ee bd 99 3b 9e 6b 82 3b
       0.0070735225 0.0076507544 0.004691831 0.003980114
000290 1c a6 da bb e0 7f 8d 3a 2f bd 2c 3c fc 19 4f bb
       -0.006672634 0.0010795556 0.010543152 -0.0031601181
0002a0 00 e5 47 3b 6b 1a 2b 3c 06 e3 db bb 87 8e 82 bb
       0.0030501485 0.01044331 -0.006710413 -0.0039842757
0002b0 34 85 11 bc 02 49 cb 3b c3 5c 1a bc d4 b4 76 3b
       -0.008881856 0.0062037716 -0.00942153 0.0037644403
0002c0 6d 8c 0b bc 40 f1 a4 b9 a7 be 03 3c 52 dd 26 bc
       -0.008517367 -0.00031460263 0.0080410605 -0.010184603
0002d0 60 7d e3 b9 20 05 d2 ba d6 b3 a7 3b 0b 87 1d 3c
       -0.00043390226 -0.0016023256 0.0051178737 0.009614716
0002e0 6b e7 96 bb de 7c a8 3b 00 7c 84 3b 08 cc b9 ba
       -0.004605224 0.0051418385 0.0040431023 -0.0014175186
0002f0 cb 7c 8f bb f1 98 1e 3c a8 15 39 3b fc 0b 0e bb
       -0.00437889 0.009680019 0.0028241668 -0.0021674624
000300 73 c5 a8 bb 05 3f 19 3c 58 d6 fa 3a 90 7f 3b 3a
       -0.005150491 0.009353404 0.0019137366 0.0007152492
000310 1e 35 17 bc 82 a3 a4 bb 38 40 b2 3a a4 ff 7e 3b
       -0.009228973 -0.0050243745 0.0013599461 0.0038909698
000320 08 01 55 3b c0 ef 81 b9 08 67 d2 ba 23 de 34 bc
       0.0032501835 -0.00024783425 -0.0016052434 -0.01103929
000330 b0 28 d7 3a 2f f9 0f bc 40 53 66 39 98 62 68 3b
       0.0016415324 -0.008787437 0.00021965522 0.0035459157
000340 9a 16 99 3b e5 e1 15 bc ba 31 ea 3b 4b 3e 1a 3c
       0.004671884 -0.009148096 0.007147041 0.009414266
000350 70 7b 75 3a 11 8f 04 3c 2a 1f 2b bc 06 67 1a bc
       0.0009364402 0.00809075 -0.010444442 -0.009423977
000360 cc 27 7d 3b 08 08 08 bc 38 29 7f 3b 4d 32 32 3c
       0.0038628457 -0.008302696 0.003893448 0.01087625
000370 78 22 04 bb d2 64 df 3b 50 54 53 bb 9c 26 22 bb
       -0.0020162147 0.0068174386 -0.00322463 -0.0024742251
000380 b0 61 ed 3a 59 de 08 3c 67 1a e8 bb 9e 1d be 3b
       0.0018110778 0.008353793 -0.0070832255 0.0058018705
000390 0c c1 1f bb 98 c5 b3 ba d4 49 4b bb b1 d2 19 3c
       -0.002437654 -0.0013715504 -0.0031019347 0.009388612
0003a0 25 a6 c0 bb 4d 35 32 3c 5b 51 bc bb 7c 95 0f 3b
       -0.005879181 0.010876966 -0.005747003 0.0021909168
0003b0 ec af f9 bb 76 27 d2 3b c1 92 1a bc 0b 5b e5 bb
       -0.0076198485 0.0064133955 -0.009434403 -0.0069993786
0003c0 54 86 34 bc 87 62 31 3c 88 89 5b bb 02 c2 d7 3b
       -0.011018354 0.010826713 -0.0033498723 0.006584407
0003d0 85 03 23 bc 27 23 27 bc 53 b0 07 3c 05 ff 17 bc
       -0.00994957 -0.010201252 0.008281785 -0.00927711
0003e0 80 c2 33 3a be 77 c2 bb f0 b9 62 3b cb d2 12 3c
       0.0006857291 -0.0059346845 0.003459569 0.00896139
0003f0 62 e2 75 bb 47 26 29 3c 97 5b 34 3c 20 56 f3 39
       -0.0037518968 0.010324067 0.011008165 0.0004641274

FC2.weight f4 [1, 5]
000000 c4 e9 b2 3e e8 a7 17 3d 28 0b 24 bd 81 79 b5 be
       0.34943974 0.037025362 -0.040049702 -0.35444263
000010 54 73 e6 bd
       -0.11252466

FC3.0.weight f4 [64, 10]
000000 61 d9 1e be 20 07 f0 bd 24 b7 4d be 23 ea 8e 3e
       -0.15512611 -0.11720109 -0.20089394 0.27913007
000010 63 8b 89 be c0 22 42 bd 08 ac 6f be 3c ae d7 bd
       -0.26864156 -0.04739642 -0.23405468 -0.105312794
000020 54 31 cd 3d 73 b2 1a be 35 1b 91 be ce 48 69 3e
       0.10019174 -0.15107135 -0.2834107 0.22781679
000030 f6 ba 39 be 7a 3f c3 bd 80 b2 0a 3e 16 40 7f 3e
       -0.18137726 -0.095335916 0.13544655 0.2492679
000040 e0 da 86 3c a7 fb 89 3e 5b b1 91 3e 78 c2 f9 3d
       0.01646179 0.26949808 0.28455624 0.12195295
000050 18 47 88 be b0 a3 78 be 2e 7d 08 3e 72 71 4f be
       -0.2661674 -0.24281192 0.13329002 -0.2025812
000060 e0 07 41 bd 90 9d 45 bd 8f a3 a0 be 57 86 85 3e
       -0.04712665 -0.048245966 -0.31374785 0.26079056
000070 98 27 2d bd 72 1c 28 be 22 cf 6d 3e 50 99 03 bd
       -0.042274088 -0.16417101 0.23223546 -0.032128632
000080 eb 2c 82 3e 23 f9 8e 3e 60 f1 12 3c df 47 39 be
       0.25424895 0.2792445 0.008968681 -0.18093823
000090 0c 5a d2 bd c4 02 c5 3d b8 40 20 3e 76 31 d9 bd
       -0.10271081 0.09619668 0.15649688 -0.10605137
0000a0 72 c7 95 be 30 83 8d bc 60 ac d9 bd f0 9c 9a 3c
       -0.29253727 -0.01727447 -0.10628581 0.018873662
0000b0 b6 8a 00 3e c0 41 c2 bb f8 7b 04 3d 0a 8f 72 3e
       0.12552914 -0.005928248 0.03234479 0.23687378
0000c0 c6 62 55 3e 5c 13 8c 3d 91 ae 21 be 8a 68 12 3e
       0.2083846 0.0683963 -0.15789248 0.14297691
0000d0 00 e1 0e bd 3a ad 35 3e 8d 7f 3b be d0 19 79 bd
       -0.034882545 0.17741862 -0.18310376 -0.060815632
0000e0 66 b6 01 3e de 65 24 3e 7c 19 ea 3d 21 78 9b be
       0.12667236 0.16054484 0.11430642 -0.3036509
0000f0 00 30 94 bb 50 64 09 3d 60 d5 06 3e 35 72 8f be
       -0.0045223236 0.03354293 0.13167334 -0.2801682
000100 b7 58 8e 3e f0 30 bb 3d 7c e0 c4 3d 2c 1e ca 3d
       0.2780206 0.091401935 0.096131295 0.09869036
000110 51 dc 88 3e 9d 48 8b be a4 de 6c be be 47 74 be
       0.26730588 -0.27203837 -0.23131806 -0.23855492
000120 54 a7 00 be 20 08 23 bd a0 31 02 bd de 8e 7d 3e
       -0.1256383 -0.03980267 -0.031785607 0.24761531
000130 b7 47 21 be 86 ef 7d be 88 59 88 be 40 18 1f be
       -0.15750013 -0.24798402 -0.26630807 -0.15536594
000140 b0 d9 8e bd 4c b0 28 3e 4a 6a 7b be c0 98 15 3c
       -0.06975114 0.16473502 -0.24552265 0.009130657
000150 10 8f 97 bc d9 49 93 3e 42 16 8e be 8e 4d 0e 3e
       -0.018500835 0.2876728 -0.27751356 0.13896772
000160 20 8e cb bc 1e 1a 2a 3e 84 46 99 3d 0f fa 8d 3e
       -0.024848044 0.16611525 0.07484153 0.27729842
000170 e8 af 53 bd 80 fa 2b bc 90 1f db 3d 52 b5 05 3e
       -0.05168143 -0.010496736 0.106993794 0.1305745
000180 f4 a6 71 be fe 02 75 3e f4 47 4e be c8 49 24 3d
       -0.23598844 0.23926923 -0.20144635 0.040109426
000190 d8 2a e4 bd 23 36 75 be 94 cc ba bd fa f6 9e bd
       -0.11140984 -0.23946433 -0.091210514 -0.07761951
0001a0 02 85 e7 bd a0 7e 52 bc a0 24 80 be 48 bc 1d bd
       -0.11304666 -0.012847573 -0.25027943 -0.038509637
0001b0 10 35 5c bd f8 e7 0f 3d d6 93 1f 3e 96 b4 9a bd
       -0.05376154 0.035133332 0.15583739 -0.07553975
0001c0 cc ef ba 3d e5 0f 99 3e a6 ca 98 bd 8c 41 73 be
       0.09127769 0.2989494 -0.07460527 -0.23755473
0001d0 ee f1 7c 3e 3d 3a 8a 3e 32 83 91 be 98 81 07 3e
       0.24701664 0.26997557 -0.28420407 0.1323303
0001e0 70 9e 51 be a0 57 85 bd 50 04 5c be 5e b1 8b be
       -0.20470595 -0.06510854 -0.2148602 -0.27283758
0001f0 30 12 39 3d b8 17 fc 3d 34 5f 05 3e 45 91 87 3e
       0.04518336 0.123092115 0.13024598 0.2647802
000200 6e 57 4e be 71 86 08 be 7c 6e ec bd cf c7 87 3e
       -0.2015054 -0.13332535 -0.11544511 0.2651963
000210 b2 1b c2 bd 40 31 81 3c 48 4e c9 3d 5a cf e9 bd
       -0.09477939 0.015770555 0.09829384 -0.11416502
000220 31 d6 9d 3e 8d 5c 9e be 21 bd 00 be c8 0c 02 bd
       0.30827478 -0.30929986 -0.12572147 -0.03175047
000230 e4 38 c7 3d 62 f7 63 3e 80 92 ff bc d2 90 5a 3e
       0.09727648 0.22262338 -0.031197786 0.21344307
000240 38 a8 8b 3d 5e f9 06 be 80 8a 92 3d e8 7f 31 3e
       0.068191946 -0.13181064 0.07155323 0.17333949
000250 5d 6f 3b be 7a dd 70 3e d0 ee 8a be 96 1d 68 3e
       -0.183042 0.23521987 -0.27135324 0.22667536
000260 00 01 d2 bb 8c 3c 16 3e 3c 5d 29 3e dc 24 ec 3d
       -0.0064088106 0.14671534 0.16539472 0.11530468
000270 d4 7d 97 be e6 38 5b 3e 00 22 a2 3d 53 91 9c 3e
       -0.29588187 0.21408424 0.07916641 0.30579624
000280 60 69 e7 3c bc 59 a2 bd c5 05 96 3e c3 08 80 3e
       0.028248489 -0.07927272 0.29301277 0.25006685
000290 6f 2e 14 be ac 4a 1c 3e b9 46 88 be a8 05 26 bd
       -0.14470838 0.1526286 -0.26616457 -0.040532738
0002a0 70 35 9e 3d 02 f4 ca bd 96 94 29 be 88 0d 9c bd
       0.07725036 -0.09909822 -0.16560587 -0.076197684
0002b0 50 c3 e1 bc 41 1f 1a be f2 4b 6a be ba ac 82 be
       -0.027558953 -0.15050985 -0.22880533 -0.25522405
0002c0 56 20 e2 bd ba 64 5e be 00 a8 3b 3c 4d 64 69 be
       -0.11041324 -0.21718112 0.011453629 -0.22792168
0002d0 e8 77 c1 3d 28 1f 3a 3e 25 ae 90 3e c4 6d 05 3e
       0.094466984 0.18175948 0.28257862 0.13030154
0002e0 40 8d 4e bd 7d 5a 31 be 98 37 28 bd e8 8c da 3d
       -0.050427675 -0.17319675 -0.041068643 0.10671407
0002f0 bb 7c 9b 3e e0 8c 77 bc 0e a5 7d be 9e f6 93 be
       0.303686 -0.015109271 -0.24769995 -0.2889909
000300 98 fa 4d 3d ce 39 3f 3e 2e 0f 5e be 00 c2 e3 3b
       0.050287813 0.18674394 -0.21685478 0.006950617
000310 f8 93 15 be e0 47 ae 3c b3 a0 93 3e 51 01 8e be
       -0.14607227 0.021274507 0.2883354 -0.2773538
000320 ff b6 27 be 9a 7b 61 3e 80 9a 52 bb 40 ed 6f 3d
       -0.16378401 0.22019807 -0.0032135546 0.05857587
000330 c6 cb 48 3e 3e 7c 65 3e 10 7e 96 be 45 56 04 be
       0.19608983 0.22410676 -0.29393053 -0.12923534
000340 a2 ad 3a be 5a 21 a6 bd cc 5c 8d 3d 57 b5 9e 3e
       -0.18230298 -0.0811183 0.06902465 0.30997726
000350 48 14 20 be 04 11 c4 bd 50 e1 06 3d 90 70 17 3d
       -0.15632737 -0.09573558 0.03292972 0.036972582
000360 80 69 9b 3c c0 1d d3 3c c0 94 a1 3c fb 6f a1 3e
       0.018971205 0.025771022 0.01972425 0.31530747
000370 00 8b 09 bc 68 e7 67 bd 11 fc 9c be 78 b9 13 bd
       -0.008394957 -0.05661717 -0.3066106 -0.03606555
000380 e8 98 b3 bd 9a fa 1c be 6c 63 c6 3d 38 31 ff bd
       -0.08769399 -0.15329972 0.09686932 -0.124605596
000390 e4 6a f5 3d b6 06 c3 bd e0 0a 11 bd 70 dd ae bc
       0.119832784 -0.095227644 -0.03541076 -0.021345824
0003a0 c7 14 83 3e 16 ef 85 be d0 83 17 3d 2e d5 4d be
       0.2560179 -0.2615897 0.03699094 -0.20100853
0003b0 80 8b b8 bc f2 26 71 be e6 a2 28 3e 64 38 8b 3d
       -0.022527456 -0.23550013 0.16468391 0.06797865
0003c0 d4 2d c8 3d 43 99 89 be 00 c1 9d 3c 00 1f dc 3c
       0.09774366 -0.26874742 0.019257069 0.02687025
0003d0 29 46 99 be 02 9e 88 be e6 a6 6e be bd d0 9e 3e
       -0.2993634 -0.2668305 -0.23305854 0.3101863
0003e0 ad 6f 89 3e b4 4e 16 3e 11 8b 28 be 2b a2 7d be
       0.26843014 0.1467846 -0.164593 -0.24768893
0003f0 85 5f 17 be 7b 62 95 3e a7 5f 28 be de cb 15 3e
       -0.14782532 0.29176697 -0.16442738 0.1462855

FC3.0.bias f4 [64]
000000 13 23 97 3e 94 03 78 be 40 2e 8d bb b0 cc cf 3c
       0.29518947 -0.24220115 -0.004308492 0.025366157
000010 e0 1f 4d bd cc b9 03 be 20 34 43 3d 06 74 5e be
       -0.050079226 -0.12863845 0.047657132 -0.21723947
000020 40 4b 46 3d 83 02 26 be e0 1e 4d 3d 18 7e 12 bd
       0.048411608 -0.16211896 0.050078273 -0.035764784
000030 33 bf 29 be c2 bf a1 be a8 e8 61 3d 4a cc 4c 3e
       -0.16576843 -0.31591612 0.05515352 0.19999805
000040 a0 21 83 bd 78 ae 67 bd 15 37 81 3e 38 f3 59 be
       -0.06402898 -0.05656287 0.25237337 -0.21284187
000050 4a 19 7c 3e 68 1e 1d 3d 80 a0 8d 3d a0 19 6a 3d
       0.24619022 0.038359076 0.069153786 0.057153344
000060 48 8f 80 bd ea 6f 6a 3e 22 1b 7a 3e ce fd 63 3e
       -0.06277329 0.22894254 0.24424413 0.22264788
000070 50 bd 5e be 06 d9 93 bd 2a 5b 3c 3e 0a 1c d3 bd
       -0.21751904 -0.07219128 0.18394151 -0.103080824
000080 ea 96 0b be 48 39 1f 3d fa 9b 50 3e d8 a3 8a be
       -0.13631788 0.038872987 0.20372 -0.27078128
000090 52 4a 1a 3e 71 95 77 be 6a 7e 6f 3e 5d d9 97 3e
       0.15067413 -0.24178101 0.23388067 0.29658023
0000a0 3c 52 08 3e 1f ac 3d be f8 aa 8c 3d d7 25 9c 3e
       0.1331262 -0.1852269 0.06868547 0.3049762
0000b0 cc c8 38 3e d3 b4 83 3e 83 05 3f be 9e 88 b6 bd
       0.18045348 0.25723895 -0.18654446 -0.089127764
0000c0 de 07 5e 3e f8 b5 f5 3d 38 4f 95 3d 80 f8 d4 3c
       0.21682689 0.119975984 0.072905004 0.0259974
0000d0 e8 6b 84 3d fa fa 1b 3e c0 e9 cb bd 8e d1 2d 3e
       0.06465894 0.15232459 -0.09956694 0.1697447
0000e0 70 11 5f 3d 8d a1 85 3e 18 db c6 3d 10 b9 b9 bc
       0.05445999 0.26099816 0.097097576 -0.022671252
0000f0 a4 04 1f 3e a0 16 6b 3c a0 27 f2 3c 68 90 2b 3e
       0.15529114 0.014348656 0.02955991 0.16754305

FC3.2.weight f4 [3, 64]
000000 24 07 d3 bd ce 75 e0 bd d6 ce fc bd 24 3c e5 bd
       -0.10304096 -0.109599695 -0.12344138 -0.111931115
000010 5a 4e bf bd f8 04 19 bd d6 62 98 bd 18 00 d1 3d
       -0.09341116 -0.037358254 -0.074407265 0.10205096
000020 cc d4 ff bd a0 33 e3 3b 00 62 1d bc c8 f5 a2 bd
       -0.1249176 0.0069336444 -0.009605885 -0.07957035
000030 c8 52 e3 3c ee 78 b0 bd 2c eb b0 3d a8 94 c5 3d
       0.027749434 -0.086168155 0.086386055 0.096474946
000040 8e 1d fd 3d f4 b8 43 bd 70 99 fa 3c 34 31 de bd
       0.12359153 -0.047783807 0.030590743 -0.108492285
000050 a0 55 d0 bb ee 4a f3 bd 9c e7 9f 3d da ae e0 3d
       -0.0063578635 -0.11879526 0.07807848 0.1097085
000060 c4 e7 3f bd f8 5a 1f bd fc 4f ae 3d 00 03 a2 bc
       -0.04685189 -0.038905114 0.085113496 -0.019776821
000070 a2 d0 df bd d0 14 73 3d 50 9a 3e 3c e4 c9 01 bd
       -0.109284654 0.05934602 0.011633471 -0.03168668
000080 22 96 97 bd 04 32 5b 3d a8 ad f1 bd 70 18 a5 bc
       -0.074016824 0.053514495 -0.118007004 -0.020153254
000090 5a 77 a7 3d 74 f0 03 3d 5a 85 ee 3d f0 dd 68 bc
       0.081770614 0.032211736 0.116465285 -0.01421307
0000a0 48 d8 71 bd a8 a4 00 bd 18 d5 ce 3d 2c bf f2 3d
       -0.059044152 -0.03140703 0.10099238 0.118528694
0000b0 c0 32 f7 3b c8 ed 2c bd a4 1c 1a bd e0 43 f9 bd
       0.0075438917 -0.042218953 -0.03762497 -0.12171149
0000c0 94 57 94 bd 1e 64 be bd 04 72 8f bd be 95 d6 bd
       -0.07243267 -0.092964396 -0.07004169 -0.1047778
0000d0 02 e4 da 3d 12 10 a1 3d 04 62 9d 3d a8 11 f1 3d
       0.1068802 0.07864393 0.076847106 0.11770946
0000e0 1c cc 6a 3d 10 08 d6 bd ce 1e 96 bd 20 6f 31 3c
       0.05732356 -0.104507565 -0.07330094 0.010829717
0000f0 e0 2a 36 3c 74 14 fd 3d 46 d3 fd bd 58 f7 56 bd
       0.011118621 0.12357417 -0.12393813 -0.05248198
000100 a0 9b 55 3d e8 5a ef 3c 90 73 9f bd 74 0d f4 bd
       0.05215037 0.029218152 -0.07785714 -0.119166285
000110 30 80 6f bd 88 6d b7 bd 6e 83 fd bd 8c 85 16 3d
       -0.05847186 -0.08956438 -0.12378584 0.036748454
000120 80 92 d9 3d e0 c6 61 bd a0 44 c0 3d 90 8c 6e 3d
       0.10623646 -0.055121303 0.09388089 0.05823952
000130 44 58 0a 3d c0 cd 3a 3d c0 7a 5d 3b 2e db db 3d
       0.033775583 0.045606375 0.0033795089 0.107351646
000140 06 17 89 3d c4 c7 3d bd 74 14 44 3d 6c 16 5a bd
       0.066938445 -0.04633309 0.047871068 -0.05324404
000150 c4 ad 2e bd 46 83 f8 3d 68 c2 18 3d c0 91 81 bc
       -0.042646185 0.121344134 0.037294775 -0.01581657
000160 70 53 de bc 70 70 d4 bc ba a7 bf bd d6 50 85 bd
       -0.027139395 -0.02593252 -0.09358163 -0.06509559
000170 7e d4 eb 3d 78 88 93 3c 9c 80 cf bd d0 42 02 3d
       0.11515139 0.01800941 -0.10131952 0.031802
000180 fa 61 e6 bd 64 32 a8 bd d0 70 32 3d c0 83 b3 3c
       -0.11249156 -0.08212736 0.043564618 0.02191341
000190 30 0c 43 bd e6 dc b2 3d f2 79 a7 3d 68 f5 96 bd
       -0.047619045 0.08733539 0.08177556 -0.07371026
0001a0 58 76 98 3d 80 42 ee bd bc e6 ad bd b8 9a e1 bc
       0.07444447 -0.116337776 -0.08491275 -0.027539596
0001b0 42 81 b0 bd e6 39 ee bd 52 7a c3 bd c8 ff 61 bd
       -0.08618404 -0.11632137 -0.09544815 -0.055175573
0001c0 f8 ed 9a 3d 4e c2 a2 bd 80 e3 b8 bc f6 c8 aa bd
       0.0756492 -0.07947217 -0.022569418 -0.083391115
0001d0 b0 11 15 bc 76 14 8e 3d a0 9d c7 bd da 55 8f bd
       -0.009098455 0.06937496 -0.097468615 -0.06998797
0001e0 f0 80 ed 3c e8 8a d0 bc 78 c8 e9 bc f8 b0 91 bd
       0.028992146 -0.02545686 -0.028537974 -0.07113832
0001f0 f0 95 6c 3d d4 d0 52 3d 5c ed 99 3d 3a 7a 97 bd
       0.05776018 0.051468685 0.07515976 -0.0739636
000200 34 3e 52 bd 6c 87 7d bd c0 e7 1f 3b 4e 0d b1 3d
       -0.051328853 -0.061896726 0.0024399608 0.08645116
000210 9c e7 6d 3d a0 ea f2 bb 4e f8 82 bd 70 75 3c 3c
       0.058082208 -0.0074132234 -0.063950166 0.011502609
000220 78 b0 d2 3c e4 cd 2d 3d f0 3d 1d bd 48 87 d5 3c
       0.025718912 0.04243268 -0.038389146 0.026065484
000230 50 04 40 bc 0e 76 8d bd 8c 2f 4b 3d 24 ba e9 3d
       -0.011719778 -0.06907283 0.04960589 0.11412457
000240 60 b1 b4 3c 00 73 9e bd f2 a7 8a 3d b8 ae 15 3d
       0.022057235 -0.07736778 0.06770314 0.036543578
000250 08 e1 85 3c 9c 3d 9f bd 98 15 72 bd a6 2c ee bd
       0.016342655 -0.07775423 -0.059102625 -0.1162961
000260 f2 21 9f 3d a4 71 37 bd 30 f8 0d bc 58 57 c4 bc
       0.077701464 -0.04478611 -0.00866513 -0.02396743
000270 d2 96 8f 3d 84 5e 2e bd 64 6e 59 3d 6c 2e 90 bd
       0.070111886 -0.042570606 0.053083792 -0.07040104
000280 a8 4c a7 bd 10 a9 b0 3c 00 f6 d7 3b 2c 63 dc bd
       -0.08168918 0.02156499 0.006590605 -0.10761103
000290 e0 37 d0 3d f0 18 cc 3c e0 a7 49 bd 68 6d b5 3d
       0.10166907 0.024914235 -0.049232364 0.08858758
0002a0 00 43 3f 3a 80 2f 47 bb dc 0c d1 3d 12 14 fa 3d
       0.00072960556 -0.0030393302 0.10207531 0.12210859
0002b0 c0 39 c5 bd e0 91 3f bc 3c df b2 bd 6a 96 97 3d
       -0.096301556 -0.011692494 -0.08733985 0.07401736
0002c0 a0 1d 9e 3d 50 8c 09 3c 9c 00 91 bd 50 ae f5 bc
       0.07720494 0.0083952695 -0.07080194 -0.029990345
0002d0 50 40 e2 3c c4 fd 00 3d f4 7b 67 bd 30 62 2c 3d
       0.027618557 0.03149201 -0.056514695 0.042085826
0002e0 ba 8e a4 3d fa ee d5 bd 04 7c 28 3d 4c 0f 84 bd
       0.080350354 -0.10445972 0.041133896 -0.0644823
0002f0 96 53 f3 3d 2e 56 b9 3d 46 ee 99 3d 8c d5 3d 3d
       0.11881177 0.090496406 0.0751615 0.046346232

FC3.2.bias f4 [3]
000000 c0 e9 5e bd d0 5f ad bd 30 fa 67 bc
       -0.05442214 -0.084655404 -0.01415877

logstd f4 [3]
000000 b2 5a bc 3e b2 5a bc 3e b2 5a bc 3e
       0.36787945 0.36787945 0.36787945
