agent.pth (torch, 5019 bytes, 5 tensors)

0.weight f4 [64, 9]
00000000: db09 8cbe ddfa 89be e652 9e3d 85da 9cbe
00000010: 51ba 763e 99f5 03be 9048 8dbe 73c6 8c3c
00000020: 5f97 4ebe 23df 063e 0a66 833e 754f e93e
00000030: fff7 8f3e 2737 ce3d de88 b5be dfa5 d0bd
00000040: 3701 4cbd 7702 5d3e acfc 0dbe c5e5 f4bd
00000050: c36e 61be ae70 5b3e c7d8 533d 5704 5abe
00000060: 8561 633e bcb4 bd3e 26d0 863e 92a6 26be
00000070: ab9f 6d3d 9016 083d 99b4 d43d c228 05bd
00000080: d0c2 d43c cd7e 973e 1a10 8d3e 5a78 2e3e
00000090: f9ab 74bc d99d 61bd 95d4 a0bd fb52 7bbe
000000a0: 8050 5bbe d050 4d3d 935d ba3d f885 8bbe
000000b0: 3523 f7bd 24ac acbe f0de 5bbe ab7f 18be
000000c0: 9293 2a3e d4af 773e a83c 9e3e ca9e 363e
000000d0: 6a7f fb3d 87a8 813e e7a4 663e 7bc0 5fbe
000000e0: dec0 a0be f4fd 55be 4bbb d6bd e142 8d3e
000000f0: 5eaf 6cbd 3522 0b3b 963b 243e c0b4 8f3e
00000100: 5a2d 46bd f6a2 983d d392 65be 69ff 17be
00000110: 2e30 9cbd ae3d a23e 9134 27be 18dc 413e
00000120: 524d b5be a6ca f73c aafa 3e3e 5de1 523e
00000130: f9c1 6f3d 75ca 923e f1e1 b0be 3171 00be
00000140: 7e27 ebbb 2032 39be be57 b93c a081 1fbe
00000150: bd15 23be bc56 25be d622 1b3e 97b9 68be
00000160: a3c8 c83e 90c6 40be e8cf cd3e f7ff 1f3e
00000170: df5c cd3d ec9f edbd 5ebc 47be 36cf e2bd
00000180: 2cce 62be e0bf b53d cca5 c8be 3516 813e
00000190: 7598 9dbd 7f7f b83e 2245 1dbe f03b 5c3e
000001a0: 887f 37be 6b1d ac3c 0da3 9d3d 0b80 b13e
000001b0: 14bd 32bc 7ebe 8cbe 3e70 dd3d 5a83 a13d
000001c0: 1aef 28be 624e 93be 2ede 8c3d b3b2 edbd
000001d0: 5cda cc3c 3097 c7bd c49b ddbd b9c9 683e
000001e0: 73dd 48be c13d 5d3e b0c7 a83e 6a2b f23d
000001f0: 67fb 013e 972e a63d 9bc0 8d3e b0c0 3a3e
00000200: 8e76 81bd 9b8d 6ebe d01d 49be 0cb9 2fbe
00000210: 2a13 c0bd 9218 983e 673d 54be ae4f 6bbe
00000220: 13e7 cf3e 933d dbbd 3c56 bbbe 0c99 91be
00000230: 728b 0b3e 2ba8 5bbd e3b0 2ebe 22fc 943d
00000240: 2651 883e a9da 3dbe a182 b93e d978 cebc
00000250: d70a a33c 7c3b 513e e379 98be 0493 883e
00000260: 847c 2cbd b4be 91be f4da 51be 41d7 f2bd
00000270: 838e 3bbd 0b3d 89bc 1e50 9abe b78a 743e
00000280: 5f6f 933d f756 c4be 92a2 393e f5ac 5fbe
00000290: a31e a9be a2ec 653e 9afe 9e3d a4b9 acbd
000002a0: 1e78 60be 9242 993c f7f3 a4be ec96 9cbd
000002b0: befc 28bd 32f4 213e 9c9e 4e3b 6154 5d3d
000002c0: 88f4 ed3d e382 30be 83f0 82be f09e 3e3e
000002d0: 2691 42be e6a7 093e 1635 90be 304e a43e
000002e0: 1667 563e ea77 2bbe 03ee 413e d32e efbd
000002f0: a294 8ebe 06e6 6cbe 8516 ea3c 6cc5 a93d
00000300: 9740 533d 6d8e 243d 4657 afbd 160a 88bd
00000310: 14de 463c 2a0d bf3e 91b5 963e 9962 b4be
00000320: 9be8 433e 268e 583e 3e26 50be 307c efba
00000330: aa10 073e c447 4e3e 688c 7ebe 8c17 043e
00000340: 6199 a3bd 4b98 e03d 2715 88bd 38f7 6bbe
00000350: 04d3 f73c d60f 6abe 1c31 973e 4283 6b3e
00000360: 3a45 82bd 2dc5 1cbe 2cf6 40be 56df 203e
00000370: 11b2 743c 6745 8cbe 7a34 18bc a62d 9ebd
00000380: 6357 4ebe c853 453e f921 69be cf8c 3c3e
00000390: 9a15 303e 3111 c7be 33c0 863d 1d70 463e
000003a0: 16d0 d4be 11ee 5fbe 30b0 703e 6c0c 253f
000003b0: b871 b0bd 068b 9ebe 60f0 1cbe 0e90 e2bd
000003c0: 7fbc 2b3d 5ac6 713e 2466 4abe 4569 40be
000003d0: 46a8 b13e 344f b5be 02c7 953c 44a6 db3d
000003e0: 99b4 9cbd 1ea3 653e a1f0 e2bc 26a5 2e3e
000003f0: 1b28 b73d 966c 8f3d 6fc6 b43d e61c 8d3e
-0.2735127 -0.26949206 0.07730655 -0.30635467 0.24094512 -0.12886657 -0.27594423 0.017184472
-0.20174931 0.13171057 0.25663787 0.45568433 0.28118894 0.10069113 -0.35455984 -0.101878874
-0.049805846 0.21582972 -0.13865918 -0.119578876 -0.22014908 0.21429703 0.051720407 -0.21290718
0.2220517 0.37051952 0.2633068 -0.16274479 0.0580136 0.033224642 0.10386009 -0.032509573
0.0259718 0.2958893 0.27551347 0.17038098 -0.01493358 -0.055082176 -0.07853047 -0.24543373
-0.21417427 0.050125897 0.09099879 -0.27250648 -0.12067262 -0.33725083 -0.21471763 -0.14892451
0.16657856 0.24188167 0.30905652 0.1783401 0.12280162 0.2532389 0.22523843 -0.21850769
-0.31397146 -0.20897657 -0.10484942 0.27590087 -0.05778443 0.0021230106 0.16038355 0.2806759
-0.048383094 0.07452957 -0.2241929 -0.14843525 -0.07626377 0.31687683 -0.16328646 0.18931615
-0.35410553 0.030247997 0.18650308 0.20593782 0.058534596 0.28670087 -0.3454738 -0.12543179
-0.0071763387 -0.18085527 0.022624847 -0.15576792 -0.15926261 -0.16146368 0.15150008 -0.22727047
0.39215574 -0.18825746 0.40197682 0.15624987 0.100274794 -0.11602768 -0.1950545 -0.110746786
-0.22148961 0.08874488 -0.39188993 0.25212255 -0.076950945 0.36034772 -0.15358403 0.2150724
-0.17919743 0.021010121 0.07697115 0.34668002 -0.010909338 -0.27489084 0.10812424 0.078863814
-0.1649746 -0.2877074 0.06878315 -0.1160635 0.025006466 -0.097456336 -0.108207256 0.22733201
-0.19615726 0.21605588 0.3296485 0.11824687 0.12693559 0.08114355 0.2768601 0.18237567
-0.06321441 -0.23296206 -0.19640279 -0.17160434 -0.09378655 0.29706246 -0.20726548 -0.22979614
0.40605983 -0.10705104 -0.3658923 -0.28437078 0.13627413 -0.053627174 -0.17059664 0.07274653
0.2662441 -0.18540443 0.36232474 -0.025204109 0.01990263 0.20432848 -0.29780492 0.26674664
-0.042110935 -0.28465807 -0.2049368 -0.11857463 -0.045790207 -0.01675274 -0.3013925 0.2388104
0.07198977 -0.383476 0.18128422 -0.21843322 -0.33031186 0.2245355 0.07763405 -0.08433846
-0.21920821 0.018708501 -0.3221738 -0.076459736 -0.04125666 0.1581581 0.0031527644 0.054035548
0.11618906 -0.1723743 -0.2557412 0.18615317 -0.19000682 0.13442954 -0.281655 0.32090902
0.20937762 -0.16744962 0.1893845 -0.11678853 -0.27847773 -0.23134622 0.028575191 0.08289608
0.05157527 0.04017489 -0.08561568 -0.06642549 0.0121379085 0.3731473 0.294354 -0.35231474
0.191317 0.21147975 -0.20327088 -0.0018271264 0.1318995 0.20144564 -0.24858248 0.12899607
-0.07988239 0.109665476 -0.066446595 -0.23043525 0.030251987 -0.22857603 0.29529655 0.2299929
-0.0636086 -0.15309592 -0.18843907 0.15710196 0.014935032 -0.273967 -0.009289855 -0.077235505
-0.20150523 0.19270241 -0.22766866 0.18413089 0.1719574 -0.38880304 0.06579628 0.19378705
-0.41565007 -0.21868159 0.2350471 0.6447208 -0.0861544 -0.3096544 -0.15326071 -0.110626325
0.04192781 0.23610821 -0.19765526 -0.18790157 0.34698695 -0.3541199 0.01828337 0.10725072
-0.07651634 0.22425506 -0.027702631 0.17055187 0.089431964 0.07003133 0.08826911 0.2756111

0.bias f4 [64]
00000000: 4064 b9bd 2829 3d3e c0db 1b3e 52b6 133e
00000010: b652 0bbe e5d1 2c3e 8a23 c73d 84a9 013e
00000020: 93a4 23be d4cd 923b ee06 473e c710 2a3d
00000030: 0717 5fbe dd73 9abe 6261 ffbd c6a8 813d
00000040: c5fb 72bd 45cf 763e 0bff 84be 0184 313a
00000050: cb4e ccbd ca35 503e 76a1 433e af36 523e
00000060: 6ac8 203e b9a1 923e eaed 6e3e fe13 753e
00000070: 4fa9 463e a088 8c3e 130e 2cbd 5173 9a3d
00000080: 5775 5b3e b801 99be f9af babd d108 db3d
00000090: bc12 b5bd 2d86 8fbe e41c 633e d975 803e
000000a0: dcdf 5abe 1a94 213e 60bc 633e c933 b6bd
000000b0: d4b9 953e 1d62 f9bc 9721 aa3e 5ded 8cbe
000000c0: 3a6c 89be 07a8 9d3e eced e13c b421 57be
000000d0: 714f b63d c023 9ebc 950e 733e 056d 8fbd
000000e0: e66a 6d3d 0f2a 8b3d 6511 5fbd 0c78 89be
000000f0: 71af 6e3d 07e4 61be a0f9 a23e ace8 5a3e
-0.09052324 0.18472731 0.15220547 0.14425018 -0.1360577 0.16876943 0.097235754 0.12662321
-0.15980749 0.004480103 0.19436237 0.041519906 -0.21786128 -0.30166522 -0.12469746 0.06331019
-0.059322137 0.24102505 -0.25975832 0.0006771684 -0.09975966 0.20333019 0.19104561 0.20528673
0.15701452 0.2863901 0.23332945 0.23933408 0.19400524 0.27447987 -0.04200561 0.07541526
0.2143148 -0.29884124 -0.09115595 0.10695041 -0.08841464 -0.28032055 0.2217899 0.2508991
-0.21374458 0.15779153 0.22239828 -0.08896596 0.29243338 -0.030442292 0.33228752 -0.27524844
-0.26840383 0.30792257 0.02757927 -0.2100895 0.08901871 -0.019304156 0.23736031 -0.07003216
0.057963274 0.067951314 -0.054459948 -0.268494 0.058272783 -0.22059642 0.31831074 0.2137782

2.weight f4 [3, 64]
00000000: 1a21 833e bb71 c9be 2fec 233e 3440 1b3e
00000010: d2f1 47bd 5b38 a83e 246b c8bd c1fe dfbd
00000020: 2960 26bd 4943 913d f09b 92be 5b31 c03c
00000030: 26f3 3dbe 8ac1 ad3e dabb 81be 9557 03bd
00000040: 650f dabb 8c5b 8f3e 1ab2 b53d 912b 063d
00000050: e5e8 9bbc fae1 ca3d e226 16bc ee84 97bd
00000060: f8a9 9ebc 2bfc 86be 001c c8be 2b07 bbbd
00000070: 6b07 7f3e a358 553d e31e d33c 7f58 d93c
00000080: 2a18 05be c2f6 443d 7ff0 453e c9b7 a3bd
00000090: a8fc 35be 0d4c 3c3d 64e3 b7bd 82e8 2e3e
000000a0: eae5 ccbe 53b7 16bf a278 22be 92b8 80bd
000000b0: 8b7c 1a3e 0d54 213e 736f 243e 9b58 303e
000000c0: 8a02 0b3e fcaf 763c 0079 963c 4542 b7be
000000d0: 9e8e 06be fd8f babe fb0c 85be 44a1 e53d
000000e0: a5b1 51be da88 003d cc37 3bbe dbb5 70bd
000000f0: 0098 c93d 367f fbbe f5c2 47bd 1612 33be
00000100: 0e39 babd 70c4 203e bdee 04bd d781 a7bb
00000110: 4ae7 cabd 56a2 bf3c a14d 863d 0e99 7b3d
00000120: 8a80 0ebe 0706 c3bd 4e5e 6bbd aaed cb3d
00000130: 342c 403d e87a 233d a714 0cbd 6027 c6bd
00000140: 7f3c 873d f525 0a3d 5272 af3d a06f 063e
00000150: d844 4b3d 2ea3 d0bd adc0 653e ccc0 a63d
00000160: f95a 85bd 4fc9 96bd edc2 cbbe a524 b73c
00000170: 16eb d83b 5041 6cbb 3a95 32be 4966 753d
00000180: 02eb c9bd c318 dcbd eab1 573e 3c74 a73d
00000190: d4d2 263c 5a96 003e 8512 91be 0efd b03d
000001a0: 726d 143f 3634 623c 70ba b13c c4f3 ac3d
000001b0: ecb4 073e 4de9 ccbd c2e6 9ebd dd58 78bd
000001c0: 0254 ddbc b284 6fbd 0bf5 b13d 2479 41be
000001d0: 43c5 7abe 5113 1fbe 10e3 68bd cfab 59bc
000001e0: 7aff 843c 9f4b bc3d 5f1e 96bd b67d 23be
000001f0: de26 363e 7fe8 8ebe fa33 db3c a279 5cbd
00000200: ae20 cfbd 765a 40bd 4cca b23e f9e3 1d3e
00000210: 5039 a83d ccee d13d 3d13 c63d a23c f3bd
00000220: d6e9 8fbe 775c 0a3d f1b4 b0be 047a f0bc
00000230: 3695 403d 87dc febd 4ca3 2cbd a476 a33e
00000240: 08b2 53be cccb c83d a4b3 41bd 148d 9dbd
00000250: 1348 0e3e 73af 663e ad51 c5bd d693 ef3d
00000260: 8126 d23d ce0f 983d 5dc6 9ebe d4e7 543e
00000270: 2ef3 dd3d 3d3b 2f3e 6813 f1bc acb7 a1be
00000280: 61a7 403e 37f6 1fbe 1364 9d3b a9b3 84bd
00000290: 4fa7 0fbe 075a 29bd 4b23 5c3e 0248 41be
000002a0: fa7e e23c deef 4e3e 3648 f3be a6fc fa3d
000002b0: a588 ce3e 5da4 d73b 99ec 59be 5660 10be
000002c0: cb14 073e fccc fb3d c1c0 333d f869 2ebd
000002d0: a1ae 16be 5f8a a73d e844 e1bb ea87 103e
000002e0: 3e99 903e 0220 dfbe 25ad d4bd 5780 bc3d
000002f0: 8782 8dbc 44ef 3e3d c79c 1c3e cc37 803e
0.25611192 -0.39344582 0.16008066 0.1516121 -0.048814602 0.32855496 -0.097860605 -0.10937262
-0.04061905 0.07092912 -0.28634596 0.023461035 -0.18549785 0.3393672 -0.25338632 -0.032065947
-0.006654667 0.27999532 0.08871861 0.032756392 -0.019031951 0.09906383 -0.009164544 -0.07398401
-0.019368157 -0.26364264 -0.39083862 -0.091322266 0.24905173 0.052086484 0.025771564 0.026531456
-0.12997499 0.04808689 0.19330023 -0.079940386 -0.17772162 0.045970965 -0.08978918 0.17080882
-0.4001916 -0.5887348 -0.1586633 -0.06285204 0.15086572 0.15754719 0.1605814 0.172213
0.13575187 0.015056606 0.018368244 -0.35792747 -0.13140342 -0.3643798 -0.25986466 0.112123996
-0.20477922 0.03138051 -0.18283004 -0.05876718 0.09843445 -0.49120492 -0.04876991 -0.17487368
-0.090929136 0.15699935 -0.03245424 -0.0051119137 -0.09907396 0.023392837 0.06557775 0.06142526
-0.13916221 -0.09522634 -0.057462983 0.0995744 0.046917155 0.039912134 -0.034199383 -0.09675479
0.066033356 0.033727605 0.08566727 0.13128519 0.0496262 -0.10187374 0.22436781 0.08142242
-0.06511492 -0.07362615 -0.39797154 0.02235634 0.0066198213 -0.0036049671 -0.17439738 0.059912
-0.09859277 -0.107469104 0.21063963 0.08176467 0.010182101 0.12557355 -0.28334442 0.08642016
0.579795 0.013806393 0.021695346 0.08444932 0.1325261 -0.10005436 -0.07758857 -0.06063162
-0.027017597 -0.058476157 0.08689316 -0.18893868 -0.24489312 -0.15534712 -0.05685717 -0.013285591
0.016235102 0.09194111 -0.073300116 -0.15965924 0.17788264 -0.27911755 0.026758183 -0.053826936
-0.10113655 -0.04696127 0.34919965 0.15418996 0.082140565 0.10250625 0.09671638 -0.11876799
-0.2810809 0.033779588 -0.34513047 -0.029355057 0.0470173 -0.12444406 -0.04214792 0.31926453
-0.20673382 0.09804496 -0.04729046 -0.07692924 0.13894682 0.22527866 -0.09634719 0.11698119
0.1026125 0.074248895 -0.31010714 0.2079156 0.108373985 0.17112441 -0.029428199 -0.31585443
0.1881385 -0.15621267 0.0048031895 -0.0647958 -0.14028667 -0.041345622 0.21497838 -0.18875125
0.027648438 0.2020869 -0.4751603 0.1225522 0.40338627 0.006580873 -0.21281661 -0.14099249
0.13191526 0.12294957 0.043884996 -0.04258153 -0.14715053 0.08180689 -0.0068746693 0.14114347
0.28241915 -0.43579108 -0.10384587 0.092041664 -0.017274154 0.0466149 0.15294181 0.2504257

2.bias f4 [3]
00000000: 7c2a 8cbd 7d1e c7bd 7d74 403e
-0.06844041 -0.09722612 0.18794437

logstd f4 [3]
00000000: d33a 9a3d b070 32be e20b 203f
0.07530751 -0.174258 0.6251813
