PPO_drone_v0.pth (torch, 42945 bytes, 11 tensors)

actor.0.weight f4 [64, 9]
000000 8a bf 7f be 46 ae e2 3c ae 57 27 bd e3 1f bf be
       -0.2497541 0.02767099 -0.040855102 -0.37329015
000010 a7 50 68 bd fd e1 88 3e ea 8d d9 3d c6 7f fd bd
       -0.05671754 0.26734915 0.10622771 -0.123778865
000020 50 2e 83 3e 11 26 4a 3e 53 c1 46 3d 52 87 97 be
       0.2562127 0.19741084 0.048524212 -0.2959543
000030 58 26 91 3c c1 fc c4 3e 6c 1b e0 3c 6c ae 75 3e
       0.017718479 0.38474086 0.027356826 0.23992318
000040 28 5e 0e be 5f 4a 57 3e e6 ef 59 3d cd 68 32 be
       -0.13903105 0.21024464 0.0532073 -0.17422791
000050 58 a7 4a 3e cd 43 c6 bb c2 39 a1 3e c8 e9 d4 3d
       0.19790399 -0.006050563 0.31489378 0.10396153
000060 a9 6d bc 3d fb e2 80 3e 52 77 2e be 2a 8c 44 3e
       0.092006035 0.25173172 -0.17037705 0.19194093
000070 f2 4a 41 be ef 53 06 be 67 17 08 be e5 04 33 be
       -0.18876246 -0.13117956 -0.13290177 -0.17482336
000080 a6 b5 84 3e 67 1b 93 be c1 5b b7 3d 82 ed 2f 3e
       0.25919837 -0.28731844 0.089530475 0.17180446
000090 42 0d 54 be a5 17 6f 3e 14 46 08 3e 4c ba 49 3e
       -0.20708182 0.23348863 0.13307983 0.19699973
0000a0 8b 87 d3 bd 78 75 81 3e af ec 9a 3c 57 fb 23 3e
       -0.10328587 0.25284934 0.018911688 0.16013847
0000b0 52 6f 8d 3d a4 73 73 3e b8 cf 0a be 75 05 5a 3e
       0.06905998 0.23774582 -0.13555801 0.21291144
0000c0 f5 28 84 3d 11 bf 4e bc 0c 0b 18 bd 12 f6 5b be
       0.064531244 -0.012618796 -0.03711991 -0.21480587
0000d0 03 37 d0 bd 9c 17 dc bb 57 22 f7 3d fd f4 80 be
       -0.10166743 -0.0067166816 0.12067097 -0.2518691
0000e0 ee 1e d5 bd 78 45 8b be 76 d4 8d 3e 9d fc a9 3e
       -0.1040629 -0.27201438 0.27701157 0.3320054
0000f0 6b f1 47 3e 72 32 14 be 69 f8 39 be e1 45 97 3e
       0.19525687 -0.14472368 -0.18161167 0.295455
000100 be 75 56 3e d9 a5 c8 3e 3a fe a1 3e 99 d4 9b 3d
       0.20943353 0.39189032 0.31639272 0.07608909
000110 85 dd 80 3e 54 92 16 3e f3 0e 7d bd c4 dd 52 3d
       0.25169006 0.14704257 -0.061781835 0.051481023
000120 28 14 ff 3c 58 31 e4 bd 35 72 8b be bd c0 b3 3c
       0.031137541 -0.11142224 -0.2723557 0.02194249
000130 1f 9b 39 3e 04 3c 47 be 0c dd c7 3d d1 af 31 3e
       0.1812558 -0.19456488 0.09758958 0.17352225
000140 80 31 81 be e2 a9 9c be c7 ad 1c be 9d a2 77 bd
       -0.25233078 -0.3059836 -0.15300666 -0.060457814
000150 ee 6e 84 3e 19 3f 54 be eb a2 01 be 6c 0b 65 3e
       0.25865883 -0.20727195 -0.12659805 0.22367638
000160 af 03 83 be f9 e8 9c 3d 79 dc c7 3c 7b 87 b3 3c
       -0.25588748 0.076616235 0.024397122 0.021915188
000170 dc 30 0a 3d 6a 4e 20 be 9a 56 60 be f7 ae 33 be
       0.033738002 -0.15654913 -0.21908036 -0.17547213
000180 44 b4 7f 3e e0 48 ea bc 20 82 80 3c 8a be f6 3d
       0.2497111 -0.028599203 0.015687048 0.12048061
000190 33 00 fa bd 25 54 a6 3e a2 ec fa bd b7 fd c5 bd
       -0.12207069 0.32486072 -0.122521654 -0.09667533
0001a0 59 26 6a 3e 2c 77 52 be 30 27 e0 3d d8 88 90 3d
       0.22866191 -0.20553273 0.109449744 0.07057351
0001b0 9a d9 82 3e 6d 7c 2b be 74 b9 1f 3e 09 aa 1f 3e
       0.25556642 -0.16746683 0.15598089 0.15592207
0001c0 ce 06 99 bb f5 8c 51 3e 81 76 b7 be 4e cf 46 be
       -0.0046700006 0.20463927 -0.358326 -0.19415018
0001d0 15 08 11 be eb 84 7e be b3 7b 05 be f8 0e 6b be
       -0.1416324 -0.24855392 -0.13035469 -0.22954929
0001e0 5a 43 b3 bd ca 36 c9 bd 21 7b f4 bd 55 fd 76 3d
       -0.08753081 -0.09824903 -0.119375475 0.06030019
0001f0 7e 7f 1d be 76 e2 f9 bd 9a 1e d2 be 11 4d 55 bd
       -0.15380666 -0.12201397 -0.41038972 -0.05207545
000200 04 81 8a be 27 17 ba 3b 17 f5 56 3e fb 72 81 3c
       -0.27051556 0.0056790295 0.20991932 0.015801897
000210 1b 8d c8 3d 51 e9 46 3e 8d 42 92 3e 6b 95 80 be
       0.09792539 0.1942494 0.285664 -0.25113997
000220 2b a3 b0 be f6 83 81 be 02 ae 56 be db 33 82 3e
       -0.34499487 -0.2529599 -0.20964816 0.25430188
000230 86 7a 9d 3e 78 be ea bd ec 10 21 3e 3d 64 26 be
       0.3075754 -0.1146211 0.15729111 -0.16249175
000240 ae f4 18 3e 9c 4b ae 3e 43 fc 0a be 6e f0 59 be
       0.14937088 0.3404206 -0.13572793 -0.21283123
000250 c0 80 cb 3d 68 87 80 be 06 bb c3 3d b0 84 57 be
       0.099366665 -0.25103307 0.09557156 -0.2104671
000260 ef 64 ee 3d a1 95 19 be 08 e2 c5 bd e3 41 ae bd
       0.11640345 -0.14998485 -0.09662253 -0.08508661
000270 ec 87 59 3e 30 83 cd bd 07 b1 8c bd aa 5a 31 3d
       0.21243256 -0.10034788 -0.06869703 0.043299355
000280 7c dd 7a 3d ff 3d 82 3e 4b f1 a1 bd 9d ca fa 3d
       0.06124638 0.25437924 -0.07907351 0.12245677
000290 a5 27 44 3e fd d8 38 be 71 41 41 3d c4 e3 a8 be
       0.19155748 -0.18051524 0.04718155 -0.3298627
0002a0 76 a5 6a be 29 c6 34 3d 84 b1 09 bd 81 b3 1a be
       -0.22914681 0.044134293 -0.033616558 -0.15107538
0002b0 f7 21 ee bd 80 0a b7 be 14 0c a9 3e 9a 77 5b be
       -0.11627572 -0.35750198 0.33017027 -0.21432343
0002c0 a2 b3 b7 be 50 2e 84 bd 77 e8 3f be 46 da 7a bd
       -0.35879236 -0.06454146 -0.18741022 -0.061243318
0002d0 90 6f 0e 3e 20 9e 1b be 40 af 87 3e 2f ff 50 be
       0.13909745 -0.15197039 0.26500893 -0.20409845
0002e0 cb b1 95 be 98 ba 04 be 01 ff 5b be 8a 16 4a be
       -0.29237208 -0.12961805 -0.21483995 -0.1973516
0002f0 99 95 9b 3c 2e cf f5 3d d5 7b 27 bd 4f 07 94 3c
       0.018992232 0.12002407 -0.04088958 0.018069891
000300 f2 56 ed 3d 86 68 f5 3d ba 6b b3 be 56 bc 64 bd
       0.11588849 0.11982827 -0.35043126 -0.055843674
000310 05 54 a9 3e 53 66 67 3e 64 af 9f be 7a 36 81 3e
       0.33071914 0.22597627 -0.311885 0.25236875
000320 e6 61 a5 3e 88 9e 82 3e 39 74 04 3e 38 bb 39 bc
       0.32301253 0.25511575 0.1293496 -0.01133614
000330 26 47 9e 3e a7 dd fe bd 25 0c 44 3e e1 12 0c be
       0.30913657 -0.124446206 0.19145258 -0.13679077
000340 83 cd ea ba ea 9b 62 be 82 8f 8b be 1c d5 e8 3d
       -0.001791403 -0.22129789 -0.27257925 0.113687724
000350 ef 53 5c be 28 59 35 3e c4 fa 23 3e 53 60 21 be
       -0.21516393 0.17709792 0.16013628 -0.15759401
000360 c7 20 81 bd 20 4e 91 3e 20 8b 63 be b0 60 b4 be
       -0.0630508 0.28379917 -0.2222104 -0.35230017
000370 55 69 99 bd 31 2b 0a be 0f 55 96 3e ec 3d 91 3d
       -0.074907936 -0.13493039 0.2936177 0.07091889
000380 e0 6f 8b 3e 2c 46 19 3e d8 73 66 bd 86 4b 9d 3e
       0.2723379 0.14968175 -0.05626282 0.30721682
000390 94 b0 83 3e 18 ed 84 3d 7f 60 72 bb 1e d1 cd 3d
       0.25720656 0.064905345 -0.0036983786 0.100496516
0003a0 0b 6b e3 3d fd 0e de bd a3 e8 2e be 26 82 61 be
       0.11104401 -0.108427025 -0.17080931 -0.22022304
0003b0 c6 85 3e 3d e8 45 8a 3e 7c e1 6e be 0d e7 f3 3d
       0.046514295 0.2700646 -0.23328203 0.11909304
0003c0 2e bd 01 3d d2 a2 61 be f0 8b 72 3e 0d dd 23 be
       0.031674556 -0.22034767 0.23686194 -0.16002293
0003d0 87 ee 99 3e cf 2c 48 3e 52 97 35 be e4 7b 60 be
       0.30064794 0.19548343 -0.17733505 -0.2192226
0003e0 fb 38 5d 3d 29 34 f8 bd 79 1d 84 be e5 5b 76 3e
       0.05400942 -0.12119324 -0.25803736 0.24058492
0003f0 b8 f8 66 be 7b 33 83 be 23 dd 7b 3d 21 4e 21 bd
       -0.22555816 -0.25625214 0.06149019 -0.03938115

actor.0.bias f4 [64]
000000 3d cc 23 3e e5 be 9e 3d 9e 0d b2 be c9 03 84 3e
       0.1599588 0.07751254 -0.34776014 0.25784138
000010 15 91 15 3d b6 1e 56 be dd fc 6d be 66 e7 63 bd
       0.036515314 -0.20910153 -0.23240991 -0.0556406
000020 80 2b 89 3e 02 de e9 bd 28 ba 3d bd 8a 64 9c be
       0.26791 -0.11419298 -0.04632011 -0.30545455
000030 4a 2b 25 bd 1f c5 b0 be f7 20 27 3e a8 55 b3 3e
       -0.040324487 -0.3452539 0.16321169 0.35026288
000040 cc f7 53 be ba 38 96 3e 74 60 47 bd c1 0c 8a be
       -0.20699996 0.29340154 -0.04867597 -0.26962855
000050 d9 24 91 3e e4 2a 2f 3d 3d 1a 62 be d0 22 24 bd
       0.28348425 0.042765513 -0.22080322 -0.040072262
000060 9d 2c b3 3d f3 b5 16 3e 40 8f 96 be 02 9c 5e 3d
       0.08748744 0.14717846 -0.29406166 0.054348
000070 48 9b ae 3d 6e 74 4a bd 9f 83 6f be ab 45 3b be
       0.08525711 -0.049427442 -0.23390053 -0.18288295
000080 fd f7 7c 3d dd 07 0d 3e f4 75 32 3e c5 d3 a8 be
       0.061759938 0.13772531 0.17427808 -0.32974067
000090 d3 37 33 be 41 f0 fa 3c 85 ed 53 be 40 a4 da bc
       -0.17501764 0.03063214 -0.20696075 -0.026689649
0000a0 04 73 1b 3e b1 de 49 3e 16 c4 0e bd ef 63 7e be
       0.15180594 0.19713856 -0.03485497 -0.24842809
0000b0 33 a8 bd 3c 4b d9 be 3d 85 56 b5 3d 40 fc e5 3d
       0.023151493 0.09318789 0.08854393 0.112297535
0000c0 07 0c 68 3e e7 32 bb bd 71 94 9b be aa 09 25 3e
       0.22660838 -0.09140568 -0.3038669 0.16116968
0000d0 94 75 92 3e 80 45 87 3e 07 01 53 3e 62 69 d5 bd
       0.2860533 0.26420212 0.2060586 -0.10420491
0000e0 20 ed af 3e 4d e9 ba bc 55 23 38 bc 14 ff 99 be
       0.343606 -0.022816325 -0.011238893 -0.30077422
0000f0 12 b3 e0 3d 21 1d 75 3e 2d 19 9c bc 73 33 44 3e
       0.10971655 0.23936893 -0.019054973 0.19160251

actor.2.weight f4 [64, 64]
000000 db 76 7a 3d e6 91 23 3d b9 30 87 bd 4e 50 b5 3c
       0.061148506 0.03993406 -0.0660109 0.022133019
000010 e3 0e 95 bd 2c 84 b3 bd 79 cd e2 3d 3a 22 e9 bd
       -0.0727823 -0.08765444 0.11074347 -0.11383481
000020 88 d7 b3 3d 81 5e 9a bd fd 40 f4 bc 92 25 bb bd
       0.08781344 -0.075375564 -0.029816145 -0.09138025
000030 34 b6 76 bd 17 42 41 3d a7 56 56 bd 04 f7 99 3d
       -0.060232356 0.04718217 -0.052328732 0.075178176
000040 8b 1b 9c bd 05 94 12 bd f7 64 06 3d b2 68 c1 3d
       -0.07622441 -0.035785694 0.03281113 0.09443797
000050 e2 b4 60 bd a1 67 06 3e 1a 81 e8 bc cb b0 d1 3d
       -0.054860003 0.13125469 -0.028381873 0.10238799
000060 51 61 e9 bd 59 00 91 3d 23 45 a5 bd 03 18 1a 3c
       -0.11395515 0.070801444 -0.080698274 0.009405139
000070 82 ba fe 3a ff f0 db 3d d5 a5 10 bc 64 38 91 bc
       0.0019434246 0.10739326 -0.0088286 -0.017727084
000080 3c bc 4b bd da 30 05 bd 71 c7 ac bd dd 31 74 bd
       -0.04974006 -0.03251729 -0.08436478 -0.059617866
000090 1f 20 44 3d cf 55 e2 bd 6f 0b 8e 3c 4f 45 4e 3d
       0.047882196 -0.11051523 0.017339436 0.050359067
0000a0 71 42 e0 bc e7 a1 c8 bd 92 4c ec bd 32 64 19 3c
       -0.027375432 -0.097965054 -0.11538042 0.009362267
0000b0 81 f9 30 bd a1 6c fe bc 62 88 dd bd 8b 2a 22 3d
       -0.043206695 -0.031057658 -0.108170286 0.039591353
0000c0 2a 66 c5 bd 58 82 8a 3d a1 c8 0a 3e ba bd 0e be
       -0.09638627 0.06763142 0.13553096 -0.13939562
0000d0 3c a5 dc 3c 43 82 c9 3d f8 22 e0 bd 25 3b 77 3c
       0.026934259 0.098392986 -0.1094417 0.015089785
0000e0 3f 61 03 3e 7a 48 bb bd 5d e6 6f bc 2f 35 fa 3c
       0.12830065 -0.09144683 -0.014642325 0.030542938
0000f0 2a 13 0d 3d 42 c5 fd 3c 2c 26 b7 3d a0 96 bd bd
       0.034442104 0.030977849 0.089428276 -0.09257245
000100 7e 0e 35 3d 6b fe 9f 3d 0d 5a 52 3b bd 55 8d bd
       0.044203274 0.07812198 0.0032097131 -0.06901119
000110 93 e6 c8 bd df e2 ca 3b 65 e9 2b 3d 27 5f f5 bd
       -0.098096035 0.006191596 0.04197063 -0.119810395
000120 13 6c c1 bd bb b5 94 3c 2e 4d b6 3d 7b e3 fd bc
       -0.09444442 0.018153062 0.089014396 -0.03099226
000130 ff e5 07 bd 71 c4 1f 3d 91 43 e5 bd 1f e9 76 3b
       -0.033178326 0.0390057 -0.11194528 0.0037675572
000140 e0 ab e0 3d 54 c2 51 bd 87 c7 a2 3d ba ff ae 3d
       0.109702826 -0.051210716 0.07948213 0.0854487
000150 2d 6c a0 3d f5 7a cb bd dc 62 8e bb 2a 90 0f bd
       0.07833133 -0.099355616 -0.004345281 -0.035049595
000160 f9 41 8d bd f5 7b d4 ba c9 80 93 bd 04 e2 e9 3d
       -0.06897349 -0.0016211258 -0.07202298 0.11420062
000170 d0 f6 26 bd 2e 76 2c 3c 46 cb 8a 3d 0b 9b f2 3d
       -0.040762722 0.010526223 0.067770526 0.11845978
000180 4a 88 af bc 4a bb 65 3d 9b 13 a1 3d 4e a7 3d 3a
       -0.021427292 0.056086816 0.078650676 0.0007234708
000190 bd c0 ad 3d d4 d9 ea bd 60 2e f5 3c 7f 5d 6c 3d
       0.084840275 -0.11467329 0.02992934 0.057706352
0001a0 77 3c b3 bc 76 91 ab bc c5 8b 5f bd 58 bd c9 bd
       -0.021879418 -0.020943385 -0.054576654 -0.098505676
0001b0 73 1e f1 3d 87 8c 9c 3d 49 6a 4f 3d 05 71 70 3d
       0.11773386 0.07643991 0.05063847 0.058701534
0001c0 6f b8 88 3d a2 bc de 3d 98 a5 2e bd b4 8c 8c 3d
       0.06675803 0.108758226 -0.04263839 0.068627745
0001d0 51 48 ad bd bb 9b 0a 3e 9c 00 bf bd 69 bb b8 bd
       -0.08461059 0.13535969 -0.09326288 -0.09020121
0001e0 2b ab de 3d a2 f3 73 3d 8d 9e 5e bd 96 89 eb bc
       0.108724914 0.05955852 -0.054350425 -0.02875213
0001f0 ff 7a af ba 3f 04 c7 bd 14 b2 ef bd 20 f1 d5 3d
       -0.0013388096 -0.09717607 -0.117038876 0.104463816
000200 23 32 cc bd c2 80 a1 3d 64 79 a5 bd 23 a1 c6 bd
       -0.099705 0.07885887 -0.08079794 -0.09698703
000210 02 0a 78 3d 7a 1d a2 bd 27 7f 60 bd 44 0b 59 bd
       0.06055642 -0.079157785 -0.054808762 -0.05298926
000220 27 13 48 3d 4a d9 f8 bd 87 74 9e bc 11 58 ba bd
       0.04884639 -0.121508196 -0.019342674 -0.090988286
000230 15 76 b9 3d 84 04 1d 3d 3d e2 47 3d e7 e6 05 be
       0.090557255 0.038334385 0.048799742 -0.13076364
000240 e4 10 01 3e ac 6c e6 bd 3e 32 e4 bd d9 d9 58 bd
       0.126041 -0.11251196 -0.111423954 -0.05294213
000250 4d e4 9e bd f5 a6 a2 3d 2e 26 d4 3d 63 7c 40 bd
       -0.07758389 0.07942001 0.10358845 -0.046993624
000260 29 fc eb 3d 6a 73 15 3d b1 cb 6b 3c 2f a6 ac 3d
       0.11522705 0.03648702 0.014391826 0.084301345
000270 70 4f d5 bd 42 12 ce 3d a6 6f d6 bc 06 91 bc bd
       -0.10415542 0.10062076 -0.026176285 -0.092073485
000280 ed 3c 32 bd b3 24 e5 bd ef d4 ee 3d 0b 76 41 3c
       -0.043515135 -0.111886404 0.116617076 0.011807929
000290 d9 61 84 bd 5d 10 c8 3d fe 3d 14 3e b1 11 e0 bd
       -0.064639755 0.09768746 0.14476773 -0.10940874
0002a0 2d 01 31 3d 6c 58 04 bd e5 15 8e 3d 70 8a fa 3c
       0.043214012 -0.03231089 0.0693777 0.03058359
0002b0 7f 6d 99 bd 31 d3 8b 3c 3e 67 4f 3c 0f 57 97 3d
       -0.07491588 0.017068477 0.012658892 0.07389652
0002c0 a9 45 c7 bd 3e 16 d1 3d a1 fb 16 3e cc d7 53 bc
       -0.097300835 0.102093205 0.14744426 -0.012929868
0002d0 7a f5 9e 3c 88 4e 09 3d cb 6c c6 3d b1 ee 15 3d
       0.019404162 0.03352216 0.09688719 0.036604587
0002e0 f8 ed 03 3c 89 93 ce 3d b0 d5 6f bd 42 a3 d8 3d
       0.008052342 0.10086734 -0.058553398 0.10578014
0002f0 da 8b b2 ba a4 b0 07 bc 30 49 ca 3a a1 72 0f bc
       -0.0013622001 -0.0082818605 0.0015433189 -0.008755357
000300 d4 51 8c 3d 4d d5 2b bd 4a 84 d1 3d 8d 85 e4 bd
       0.06851545 -0.041951466 0.1023031 -0.11158285
000310 35 43 ad bd 76 e4 83 bd eb 0a 1f 3d 49 d5 0a 3e
       -0.08460084 -0.0644006 0.03882877 0.13557924
000320 f1 0d 13 3e b7 e5 95 3d f1 44 08 3e b1 78 05 be
       0.14360787 0.07319205 0.13307549 -0.13034321
000330 e2 e2 1c bb aa 7c a1 3d 6c cf 40 3d a3 6f ab bd
       -0.0023938944 0.07885106 0.047072813 -0.083709024
000340 40 3c 0c bc a0 61 db 3d d2 f6 0f 3d 8c 69 6c 3d
       -0.008559287 0.1071198 0.035147496 0.057717845
000350 d2 36 ce bd 2e cf 91 bd 40 b6 a8 3d 81 76 cd bd
       -0.1006905 -0.071195945 0.082378864 -0.100323685
000360 f3 8c c3 bc d7 0e 97 3d be 1c 08 bd 3a 3e 05 bc
       -0.02387092 0.07375877 -0.033230536 -0.008132512
000370 b0 ed 20 3b c9 5d d0 3d b2 30 b1 3d bc ed eb bd
       0.0024555735 0.10174138 0.08651866 -0.115199536
000380 fd 4f f5 bd 49 2c e7 bc b5 74 f0 3d 88 67 c6 bc
       -0.11978147 -0.028219359 0.1174101 -0.02421929
000390 af f7 2d 3d 54 14 94 b9 9d 82 40 bc 56 7f f4 3c
       0.042472538 -0.00028243905 -0.011749891 0.029845875
0003a0 99 da 94 3d 7b 73 0a 3b 81 f0 88 3d 1e 88 cb 3d
       0.07268257 0.002112596 0.066864975 0.09938072
0003b0 c0 e4 ff bc 30 61 ac bc 8a 1e 44 3c 60 54 8c 39
       -0.031237006 -0.021042436 0.011970172 0.00026765745
0003c0 40 d3 e3 3d 0f 2c d4 bd bb 67 87 bd 2a 47 d1 3b
       0.11124277 -0.10359966 -0.06611582 0.0063866572
0003d0 15 3b 54 bc 94 e1 93 3d 1c a8 a1 3c b8 68 c1 bd
       -0.012953539 0.0722076 0.019733481 -0.09443802
0003e0 dc b4 c4 3d 55 81 17 bc 8b 1b d2 3c 91 6d 3e bd
       0.09604809 -0.009247144 0.0256479 -0.04649121
0003f0 33 eb 8c bc f9 37 dc 3d 57 b3 a5 bd 2b eb 1d 3c
       -0.017201995 0.107528634 -0.08090847 0.009638588

actor.2.bias f4 [64]
000000 c4 71 1b bd d4 3c 29 3d 9a 34 93 3d 43 4f 8f 3d
       -0.037950292 0.041317776 0.07187767 0.0699754
000010 17 b2 a0 bd 96 ef 0e 3d 7c 4b df 3d 47 5d e5 bd
       -0.07846468 0.034896456 0.109030694 -0.11199432
000020 43 b5 a1 3d 06 1e 33 bd b8 0b 8c bc 5e 06 d1 bd
       0.07895901 -0.043729804 -0.017095432 -0.102062926
000030 02 15 1d bd e8 2a 97 bd ab 30 d7 bd da 09 f7 bd
       -0.038350113 -0.073812306 -0.105073296 -0.12062426
000040 1f 3c 90 bd c1 5f d9 bc 2e e9 7e 3d 64 70 c2 3d
       -0.07042717 -0.026534917 0.062234096 0.09494093
000050 d2 a6 66 3c 78 5e bb 3d 86 fd 81 3d 2e b1 81 3d
       0.014077859 0.09148878 0.06347184 0.063326225
000060 6e 2f e3 3d 3b e0 88 bd 11 3b 71 3d a6 3f 45 3d
       0.11093031 -0.066833936 0.05889422 0.048156403
000070 30 1c 8f 3d b5 fa a7 bd 72 c3 15 3d 3b c0 b8 3d
       0.06987798 -0.082021154 0.036563344 0.0902104
000080 2a df e1 3c 6b e2 a2 bd 1d 54 a7 3d 66 d7 0c 3c
       0.027572233 -0.07953342 0.0817034 0.008596277
000090 39 24 55 3a c4 ce cc bc e2 e0 94 3d 4f c0 81 bb
       0.0008130703 -0.025000937 0.072694555 -0.0039596925
0000a0 9c 92 ca 3d 8f d8 92 3d 87 a2 d8 3d 5e 91 af 3d
       0.09891245 0.071702115 0.10577875 0.085726485
0000b0 05 49 e4 bd 13 34 f7 bd 70 5f e6 3d 73 6b 80 3d
       -0.1114674 -0.12070479 0.11248672 0.06270494
0000c0 1b 58 2f bd 1a 5c 86 3d 5e 8c 8b 3d 8d d2 59 3d
       -0.042808633 0.06560536 0.06813882 0.053179312
0000d0 99 7b 09 bd 1c 4e f2 bd 41 a7 a1 3d c8 e1 af 3d
       -0.033565138 -0.118313044 0.07893229 0.08587986
0000e0 84 c0 eb 3d 68 44 a7 bd 00 15 c6 3d fc 79 eb 3c
       0.11511329 -0.08167344 0.09671974 0.02874469
0000f0 65 1a 18 3d b6 ce 0b 3d 2c da 03 3d 03 73 08 be
       0.037134547 0.03413268 0.032190487 -0.13325123

actor.4.weight f4 [3, 64]
000000 74 97 00 3e 46 6f e5 bc a4 c8 7d 3c 1d d1 df bc
       0.12557775 -0.02800716 0.015489731 -0.027321393
000010 8f 9d b0 3d b3 88 ec bc 1e c4 13 3e ae bb 48 3d
       0.08623802 -0.028873777 0.14430282 0.04900711
000020 e7 a7 a2 bd b8 a9 8d 3d 27 80 dd bd 20 03 7a bd
       -0.07942181 0.06917137 -0.10815459 -0.061038136
000030 49 b7 83 3d 5d 09 a2 bd b8 16 49 bd 4a 2f d5 bd
       0.06431443 -0.07911942 -0.049093932 -0.1040941
000040 9d 5f 8a bd b7 15 32 3d 7e 66 27 3d 81 d5 20 bd
       -0.06756518 0.04347774 0.04086923 -0.039266113
000050 a5 f3 f2 bd cc 32 f0 3d 28 cf 99 bc 02 c3 8a bd
       -0.11862878 0.11728439 -0.018775538 -0.06775476
000060 50 fd ca 3d b0 44 da 3c ed da ac bd ba 34 08 3d
       0.09911597 0.02664408 -0.08440194 0.03325341
000070 c1 90 4f bd 66 96 be 3c f8 21 ad bb e7 fb 8a bd
       -0.050675157 0.023265075 -0.0052835904 -0.06786328
000080 59 12 34 bd d4 f0 02 be a6 0c 2a 3d 00 38 89 3d
       -0.04396281 -0.12787181 0.04151597 0.06700134
000090 e2 e9 06 3d 70 e9 c4 3d 95 16 f5 3c f0 b9 ab 3d
       0.03293789 0.09614837 0.029917995 0.08385074
0000a0 ee 64 43 3d 79 49 da 3d f8 b9 7a 3d bc de f8 bd
       0.047703676 0.10658545 0.06121251 -0.12151858
0000b0 29 97 bc bd 1d 67 f5 3c cc a5 18 3d 7b 00 98 bd
       -0.09208519 0.029956395 0.03726749 -0.07421967
0000c0 51 e2 71 3d fd de ac 3d 2a f6 be 3d 7e ef ff 3d
       0.059053723 0.08440969 0.09324296 0.124968514
0000d0 bd 16 04 3e 86 62 77 3d 64 20 11 bd 4c da d6 3d
       0.12899299 0.060396694 -0.03543128 0.104908556
0000e0 e5 82 c0 bd e3 ae d8 3d f1 28 9a 3b 93 6a a9 3d
       -0.09399966 0.10580232 0.0047045876 0.082722805
0000f0 c5 a3 e4 bd 06 b8 2f bd 71 e6 56 3c d2 73 30 bd
       -0.11164049 -0.042900108 0.013116465 -0.043079205
000100 fe b9 a4 bd f2 66 cd 3d 59 e1 f6 bc 2e ff 7c bd
       -0.08043288 0.10029401 -0.030136751 -0.061766796
000110 4c a6 4d 3c 96 ef b1 3d 76 9f ce bd d2 63 87 bd
       0.012551855 0.086882755 -0.100890085 -0.06610836
000120 ba ef b6 bd 91 58 b1 bd 4e 91 17 3d 34 3f ca bd
       -0.08932443 -0.08659471 0.037003808 -0.09875336
000130 1e 4e 87 bd cd b8 c9 3d 84 6e 09 3e f4 ce 6d 3d
       -0.066066965 0.09849701 0.13421065 0.058058694
000140 60 c5 f6 bd 90 30 f2 bb 12 f4 93 3d dc 51 cf 3d
       -0.12049365 -0.007391043 0.07224287 0.10123035
000150 4b ed b8 3d f2 a8 ab 3d ae 14 4c 3d f8 58 3c 3d
       0.09029635 0.08381833 0.04982441 0.045983285
000160 03 b9 11 3d 9b 27 f0 bd 8d 62 f5 3d 62 cc 01 3e
       0.03557683 -0.11726304 0.11981688 0.12675622
000170 a6 77 b2 bd c1 ef 98 bd 95 22 c8 3d d2 4f 8d 3d
       -0.087142274 -0.074676044 0.09772221 0.0689999
000180 ad 26 d3 ba 7d 08 42 3d 86 7c 65 bd 3a 1a e8 3d
       -0.0016109549 0.047371376 -0.056026958 0.11333127
000190 a0 59 ea bd 81 6e 02 be 2e f9 f0 bd b2 d2 5e bd
       -0.11442876 -0.12737466 -0.11766277 -0.054400153
0001a0 46 6f ad 3d 6b 04 62 bc 22 a7 a7 3d 0e 50 cf 3d
       0.08468489 -0.013794999 0.08186175 0.10122691
0001b0 bf e7 02 3d 9a a2 2e bd f7 62 61 bd 10 e3 07 3e
       0.03195929 -0.042635538 -0.05502602 0.13270211
0001c0 2d ad f5 3d f7 d6 0b be d6 2d ff bc 83 00 9b 3c
       0.11995921 -0.13656221 -0.031149786 0.018921142
0001d0 12 26 a7 bd 35 f6 8f bd e2 f7 a3 bd 5d 31 0f 3d
       -0.08161558 -0.07029382 -0.08006264 0.034959186
0001e0 50 9b 04 3e 30 b0 96 3d 37 0b d2 bd eb 54 76 3d
       0.12949872 0.07357824 -0.10256045 0.060139578
0001f0 08 f7 14 3e ac a1 14 3e 54 d0 db bd 62 ad 87 bd
       0.1454736 0.14514798 -0.10733095 -0.06624867
000200 e4 16 9a 3d 94 3c fa bd 1d 4b 5a bc c1 db b6 3d
       0.07523897 -0.122185856 -0.013323572 0.089286335
000210 c1 81 8e 3d ed 8f 0b be 3a ad 22 3c 89 d7 dc 3c
       0.06958342 -0.13629122 0.009928996 0.026958244
000220 ca 1c c2 3c 06 cd bc 3d 36 8d e9 3d 76 d1 0f be
       0.023695368 0.092187926 0.11403887 -0.14044747
000230 df 43 a8 bd d1 0a f7 3d fa cc 92 3d 06 b5 25 be
       -0.082160704 0.1206261 0.071680024 -0.16182336
000240 82 ba 50 3b a1 3f 93 bd 42 81 e8 3d 71 90 77 3c
       0.0031849449 -0.071898706 0.11352779 0.015110121
000250 d2 2c 9f 3d 43 f0 9b bd 7a b5 30 be 2c b2 4f bd
       0.07772221 -0.07614186 -0.17256728 -0.050707027
000260 fe ac c5 bd 1a 56 b9 3d e3 9c 87 bd b7 39 07 3e
       -0.09652136 0.09049626 -0.06621721 0.1320561
000270 31 a6 f1 3d e2 23 a6 3c 94 b0 b0 bd da b5 1a 3c
       0.117992766 0.020280782 -0.086274296 0.009442771
000280 9a f1 19 bd d4 ab d4 bd 63 f4 e7 3d e8 b7 18 3d
       -0.037583925 -0.10384336 0.1132591 0.03728476
000290 cb ea 60 bd 4f 0b a2 bd 1a 1e ca bd 41 43 25 3d
       -0.054911416 -0.07912313 -0.09869023 0.04034734
0002a0 dd df d5 bc d6 07 9d bc ed b2 e7 bc 8b 1e f3 3d
       -0.026107723 -0.019168776 -0.02828356 0.1187106
0002b0 b2 5f 24 3d 6f 73 61 bd 5a 5c db 3d 8b fd cb 3c
       0.040130325 -0.055041727 0.10710974 0.024901172
0002c0 4d f5 03 be 7f f2 86 bb ac 2b df 3d c9 dc ef bc
       -0.12886544 -0.0041182633 0.108970016 -0.029280083
0002d0 33 cb 09 be cf a5 99 bd 4b e9 f2 bb 5b 69 fd bd
       -0.1345642 -0.075023286 -0.0074130646 -0.123736106
0002e0 73 cd da 3c 8f 77 b9 bc 17 07 67 3d 57 12 00 3c
       0.026709294 -0.022640018 0.056403246 0.007816873
0002f0 5a 23 a0 3d 7f 57 a0 3d 46 e0 18 3a ba e4 03 be
       0.07819243 0.078291886 0.0005831759 -0.12880221

actor.4.bias f4 [3]
000000 a8 b1 b6 3d 0b 10 c4 bd 4a 7f 18 bd
       0.08920604 -0.095733725 -0.037230767

critic.0.weight f4 [64, 9]
000000 71 42 66 3d 29 a1 ba 3b a2 83 51 3d 36 60 a9 3e
       0.056215707 0.0056954813 0.051150925 0.33081216
000010 1b ea a2 3e 6d 3d 75 be a3 59 12 be 5c a3 7f bd
       0.31819233 -0.23949213 -0.14292006 -0.06241165
000020 68 d3 7a be 29 e2 7b 3e 22 eb 89 3d 06 ab 6c bc
       -0.24494708 0.24597992 0.06734301 -0.014445072
000030 ca 15 f3 3e 98 a6 73 bd b5 3e 8b 3d aa 44 85 be
       0.4747756 -0.059485048 0.0679907 -0.2602895
000040 e3 24 9f 3e 96 4f 62 3d a6 67 a4 bd 35 16 02 3c
       0.3108283 0.05525168 -0.08027582 0.007939865
000050 c3 50 02 3e 14 ac fe bd 2a 42 09 3e 8d d8 ce bd
       0.1272612 -0.12435165 0.13404146 -0.100998975
000060 77 86 74 be 54 28 8e be 94 78 8a be 04 8a 9c be
       -0.2387942 -0.27765143 -0.2704512 -0.30574048
000070 e1 3a 68 3e 9a 31 19 3e d7 53 9d be 87 d9 41 be
       0.2267871 0.14960328 -0.30728027 -0.18930636
000080 c0 98 ad 3c b3 57 15 3e cd c3 36 be 6c fd 8f be
       0.021191001 0.14584236 -0.1784813 -0.28123033
000090 4f 37 9b be 4f 60 06 be 44 99 b4 3e c5 9e 66 bc
       -0.30315635 -0.13122676 0.35273182 -0.01407594
0000a0 a0 36 5b 3e 1a 1c 9e 3e f0 5a 89 3d ed 0e 8b 3e
       0.21407557 0.30880815 0.06706798 0.27159825
0000b0 38 28 74 be 28 fa aa 3d a4 9e f7 bc e0 79 6f 3e
       -0.23843467 0.08348495 -0.030227013 0.23386335
0000c0 3a 88 cb 3d 6a 6f 9a be 56 95 90 3d 0b 38 3b 3e
       0.099380925 -0.30163127 0.070597336 0.18283097
0000d0 34 f9 71 bd b6 83 bc be 81 af 09 3e ef fd 4f 3e
       -0.05907555 -0.36819237 0.13445856 0.20311712
0000e0 5f 0b 96 3e 0a 60 89 be c4 48 b0 3e 12 6c 62 be
       0.2930555 -0.26831084 0.34430516 -0.22111538
0000f0 33 36 76 be 9c d7 30 be 90 09 4a bd 62 fd 96 be
       -0.24044113 -0.17269748 -0.049325526 -0.2949019
000100 aa dc 89 be c0 41 79 3e a0 ef 10 be 13 54 a8 be
       -0.26926166 0.24341488 -0.1415391 -0.32876644
000110 7b 70 a1 bd 96 9f b1 bd 4c 01 3b be 5c 6b c3 bd
       -0.07882782 -0.08673017 -0.18262213 -0.095419616
000120 5b 7e 2b 3e 0f 38 b8 3d ee 33 58 be db 33 c8 be
       0.1674742 0.08995067 -0.2111356 -0.39102063
000130 21 ef 3d 3e ab 9e 95 3e 33 30 c9 3d a7 26 0c 3e
       0.18548252 0.29222617 0.098236464 0.1368662
000140 f8 80 f6 bd 57 06 30 be 0f 47 cf bd 75 60 af 3e
       -0.120363176 -0.17189918 -0.10120975 0.34253278
000150 e6 93 6d be 2f ca 08 3c eb b2 a6 3d af 6e 57 3d
       -0.2320095 0.008348986 0.08139595 0.05259579
000160 86 68 5a 3e 00 ab 60 be fc 58 1d be e5 25 31 3e
       0.21328935 -0.21940231 -0.15365976 0.17299612
000170 a1 80 93 3e 7c 19 9d be bb 86 eb 3d 58 97 b1 be
       0.28809074 -0.30683506 0.11500307 -0.3468578
000180 56 9e 60 be 25 a4 b2 3e f7 fe 79 be e2 b3 4f be
       -0.219354 0.34890857 -0.24413668 -0.20283464
000190 f7 10 05 be 57 40 37 be c4 56 49 be b3 01 72 3e
       -0.12994753 -0.17895637 -0.19662005 0.2363346
0001a0 95 ea 2e 3e 6c 12 e7 3d b3 1a 67 be 4e 36 e2 be
       0.17081673 0.112828106 -0.22568779 -0.44182056
0001b0 9c 27 05 3e aa f3 59 be e6 e4 14 bc 18 e6 76 3d
       0.13003391 -0.21284357 -0.009087777 0.06027803
0001c0 ea 73 91 3e 9d 02 6b be 77 79 bd 3e 7f ee bb 3d
       0.28408748 -0.22950216 0.37006733 0.09176349
0001d0 98 0b d1 3b f7 07 4c be 48 09 98 3c df 89 6a be
       0.006379556 -0.19924913 0.018559113 -0.22904156
0001e0 87 16 85 3e a9 43 5a be 16 17 79 be 9d 47 36 be
       0.2599375 -0.21314873 -0.24325213 -0.17800756
0001f0 f8 5f bb 3e 8e 62 ec 3d 18 26 2e 3d 1a bf 05 be
       0.36596656 0.11542235 0.042516798 -0.1306118
000200 41 bf 88 3e f6 65 70 be 48 9a 05 be f5 61 a9 3e
       0.26708415 -0.23476395 -0.13047135 0.33082548
000210 06 9f 65 be 85 d0 b6 bd d1 0b 56 bd bf c1 d2 bd
       -0.22423944 -0.08926491 -0.052257363 -0.102908604
000220 22 c0 bf 3e a7 2b 3e be 78 79 0f 3e bf e5 65 3e
       0.37451273 -0.1857134 0.1401118 0.22450922
000230 5b 80 83 be b2 c1 a4 3d 85 db 0f be 93 04 c9 3d
       -0.25683865 0.08044757 -0.14048584 0.098153256
000240 50 3a b3 be 1a f0 22 be db 46 99 be c7 30 79 3d
       -0.35005426 -0.15911904 -0.2993687 0.060837533
000250 42 3b 8e 3e fd 0d 9c 3e b4 72 27 3e 3e 87 fd 3d
       0.27779585 0.30479422 0.1635235 0.12379311
000260 7b 7d 18 bc 7b db 9f 3e ec 32 5b be 49 45 99 3e
       -0.009307261 0.31222138 -0.21406144 0.29935673
000270 73 37 9d 3e 30 d4 4e 3d d3 ac 96 3c 23 f1 8e 3e
       0.30706367 0.050495327 0.018392956 0.27918348
000280 ce 22 4b bd bd 95 69 be 59 59 15 3e e5 72 5c 3e
       -0.04959374 -0.22811027 0.14584865 0.21528204
000290 c9 89 a5 3e 15 d6 ae be db a5 97 3e 73 ea 7f 3d
       0.32331684 -0.34147707 0.29618725 0.062479448
0002a0 6d 58 6e be 1d b6 67 be 36 b3 73 be 21 e4 a1 be
       -0.2327592 -0.22628064 -0.23798832 -0.3161936
0002b0 67 5f 76 be 67 2c 8e bd 09 60 43 3e c5 1a a7 be
       -0.2405983 -0.06942063 0.19079603 -0.3263761
0002c0 30 8e 83 be ce 5d 6a 3e b4 79 3d 3e ad b7 5e 3e
       -0.25694418 0.22887346 0.18503457 0.21749754
0002d0 58 7d e0 3e 7b c7 44 be 58 3c 6d 3e 17 38 ea 3d
       0.4384563 -0.19216721 0.2316755 0.114364795
0002e0 f9 79 0b be 1e 12 56 3e f0 20 97 3c 43 b1 b3 3e
       -0.13620748 0.20905349 0.018448323 0.35096177
0002f0 bc 90 5b bd 3a 54 98 3d 1f 2c 7d 3d b7 83 bb bd
       -0.053604826 0.0743794 0.061809655 -0.09155982
000300 c0 32 75 be ce 85 46 be 04 88 a2 3e 24 0a 2a be
       -0.23945141 -0.1938698 0.31744397 -0.16605431
000310 46 58 d1 3e 25 01 92 3e a9 19 54 be bb 13 c8 3d
       0.4088766 0.28516498 -0.20712914 0.09769388
000320 8c c5 1d be 5c 0e 0e be cb 1c b3 bd 09 24 a9 be
       -0.1540739 -0.13872665 -0.08745726 -0.33035305
000330 3d ee b4 bd 8d cf da 3c 2c 7b 96 be 6e bc 94 bc
       -0.08834503 0.026710296 -0.29390848 -0.018156257
000340 97 02 88 be 33 78 2e 3e b1 5c 1c be 12 2f 7b bd
       -0.26564476 0.1703804 -0.15269734 -0.061324187
000350 48 2f d1 bd 81 cd b8 3e 84 11 03 3e 6e ce 81 3e
       -0.10214096 0.36094287 0.1279965 0.25352806
000360 fd 76 2f be 46 3f 5b bd 44 f0 98 3e 4b bb a4 3d
       -0.17135234 -0.05352714 0.29870808 0.08043536
000370 7b 2e ad bb d0 02 08 3c 8d 27 3a 3e 2d 3c 2c be
       -0.005285082 0.008301452 0.1817915 -0.1681983
000380 c3 cb d1 3e f3 1b 14 3d 02 1c 56 be 10 28 9f 3d
       0.4097577 0.036159467 -0.20909122 0.07771313
000390 12 f0 c1 bd d2 75 0f bc f6 1a 90 3c a1 2d ec bd
       -0.09469618 -0.008756118 0.017590981 -0.115321405
0003a0 37 ab d5 bd 5f 08 cd 3e ea 0e 85 3e ed 57 e4 3c
       -0.10433047 0.4004545 0.2598794 0.027873958
0003b0 13 17 a0 3e e6 06 2d 3e de c2 8c bd a0 f1 46 3e
       0.31267604 0.16897163 -0.068731055 0.1942811
0003c0 38 25 35 3e c5 f1 bb bd b3 76 a7 ba b5 c6 92 3e
       0.17689979 -0.09176973 -0.0012776464 0.28667226
0003d0 92 1c 7e 3e c8 24 b9 bd 26 6d e2 be 05 7d b4 3d
       0.24815586 -0.090402186 -0.442239 0.08812908
0003e0 6f d4 06 3e 4d 93 54 3e 7b 24 85 be 73 ab 47 bc
       0.13166974 0.20759316 -0.26004395 -0.012186873
0003f0 70 8e 8d be 24 dc 59 3c 2c da 58 3e e9 f9 8f 3c
       -0.27647734 0.0132971145 0.21176976 0.017575221

critic.0.bias f4 [64]
000000 71 32 e1 3d 0f 04 66 be b8 c4 6c 3e 24 18 5a be
       0.10995949 -0.22462486 0.23121917 -0.21298271
000010 1d f4 d8 bd bc 86 f0 bc c0 58 37 3e 8f 69 63 3d
       -0.10593436 -0.029361121 0.17904949 0.05552059
000020 bb a6 28 bd ed d3 49 3e 13 d6 68 bd 07 0a b4 be
       -0.04117463 0.1970975 -0.056844782 -0.351639
000030 8e dd 34 3d 07 0a 9b be 1d f4 1a 3d 67 da 06 bd
       0.044156604 -0.30281088 0.03783046 -0.03292313
000040 8c bf 6c 3e 12 0e 2f 3e cc 43 25 bd 9c b6 16 be
       0.23119944 0.17095211 -0.04034786 -0.14718097
000050 e7 3e 51 bd b1 bb 5c 3d 9b 81 56 be c4 b1 3d be
       -0.05108538 0.053889934 -0.20947878 -0.18524843
000060 c5 11 f5 3e 4e 63 39 3d ac b9 c4 3d 2e 60 bb bd
       0.4786512 0.04526072 0.096057266 -0.09149204
000070 cf c6 9e be 4e 54 50 3d d8 10 83 3e f5 08 25 bd
       -0.31011054 0.05086165 0.25598788 -0.040291745
000080 4b 9d 77 be 60 4d 44 be 18 52 8d bd 8b b8 0b be
       -0.24181096 -0.19170141 -0.06900424 -0.13644616
000090 60 a1 0b 3d 8f 0f cb be cb ac 04 3e 0f 6f b5 be
       0.034089446 -0.39660308 0.1295654 -0.35436293
0000a0 a5 95 45 3e 18 30 30 be af 18 07 bf 1c 64 25 3e
       0.19295366 -0.17205846 -0.5277204 0.1615147
0000b0 a1 3a 65 be 4d 95 2d bd 97 71 91 be 8f 2b b3 be
       -0.22385646 -0.042378712 -0.28406975 -0.3499417
0000c0 3e 34 6a bd f0 93 a8 bd bd 8a 9a 3d 51 0f b4 3e
       -0.05717873 -0.08231342 0.075459935 0.35167935
0000d0 1c e2 92 bd 34 3d bb bd f7 23 03 3e 35 29 6d 3d
       -0.07172033 -0.09142533 0.12806688 0.057900626
0000e0 83 da 25 be 64 e2 27 be 20 87 de bd ce 51 e7 bc
       -0.16196637 -0.16394955 -0.10865617 -0.02823725
0000f0 6f 33 81 3b ab 6a 56 bb b1 80 a7 bb 8b e8 94 be
       0.003942899 -0.0032717388 -0.0051117768 -0.29083666

critic.2.weight f4 [64, 64]
000000 63 f1 34 bd 0b 0e 90 3d 53 1e cc bc a0 84 c7 3d
       -0.044175517 0.070339285 -0.024916803 0.09742093
000010 d0 fe 7b bc 8c 8f 36 bd 6b 4f 84 3c ee 7e 25 be
       -0.015380576 -0.04457049 0.01615115 -0.16161701
000020 3e d8 4a bd 99 b4 4a 3d 23 1f ce bd 58 22 9b 3d
       -0.04952263 0.049488638 -0.100645326 0.0757491
000030 3e 40 65 3d d4 1a 12 3e 1b 74 b3 bc 90 d5 39 be
       0.05596947 0.14268047 -0.02190595 -0.18147874
000040 db 8c c8 3d e4 47 57 3c 56 04 a4 3c 41 77 8d 3d
       0.09792491 0.013139699 0.020021599 0.069075115
000050 79 4d 8b 3d 52 6f 2e 3c b9 d5 c8 3d de c8 4a bd
       0.06801886 0.010646658 0.09806389 -0.049507968
000060 7f d9 bd bd e9 98 75 3d 26 19 2d bd 45 5c 8a bd
       -0.0927 0.05996028 -0.04226031 -0.0675588
000070 7e 85 99 bc 68 30 16 3e 75 da 27 3d f4 ae 5b 3d
       -0.018740412 0.14666903 0.04097982 0.053633645
000080 6f 29 94 3d fa 5e 22 be 8e da ca bd fe b4 cf 3d
       0.07234465 -0.15856543 -0.09904967 0.101419434
000090 c1 e3 a2 bd d5 e6 26 be 3e 8f ea bd 6a ef cd bd
       -0.07953597 -0.16298993 -0.114531025 -0.1005543
0000a0 d2 ce 96 3d b6 c0 5e be 9d 2d 78 3e aa c0 33 3e
       0.073636666 -0.21753201 0.2423615 0.17553964
0000b0 99 07 c2 bd cb 1c 2c bd 79 15 91 3d a7 31 7b 3e
       -0.094741054 -0.042019647 0.07084174 0.2453066
0000c0 1a 86 8d 3d 1a 94 f2 bd ed 9a 70 bb 3b ae 28 bd
       0.069103435 -0.118446544 -0.0036713437 -0.041181784
0000d0 dc 6f 4a 3e 4f be c7 bd e3 99 21 bd 5b e4 d1 bd
       0.19769233 -0.09753095 -0.0394534 -0.102486335
0000e0 de b6 a3 3d fd fd 18 3e 4e 02 13 be c6 4e c9 3d
       0.079938635 0.14940639 -0.14356348 0.09829478
0000f0 e6 9f b4 3d f6 a5 f4 bd b2 05 bd bc 68 72 01 3e
       0.08819561 -0.11945717 -0.023074005 0.12641299
000100 62 b1 10 bd 27 40 42 3e 58 28 bc bd 33 c0 fc ba
       -0.035325415 0.18969785 -0.091873825 -0.0019283354
000110 7d 67 9e bd 67 bf 25 bd e3 59 5d 3c 78 38 4c bd
       -0.077345826 -0.04046574 0.0135102 -0.04985854
000120 d0 ca 64 3c ab f0 8e 3d 4a 0a b5 bd d7 a7 63 3e
       0.01396437 0.069794975 -0.08839853 0.22231995
000130 24 55 25 bc 1e 3e b8 bd 4c 86 07 be 2c 20 4c 3b
       -0.0100911 -0.08996223 -0.13234824 0.0031147106
000140 16 ec b0 3c a1 16 92 bd 2d 5e 10 3d 1d 32 4f bd
       0.02159695 -0.07133222 0.035246063 -0.0505849
000150 44 c2 1e 3d 3e 55 9e bb dc c1 6d 3d 48 17 cd bd
       0.038759485 -0.004831939 0.058046207 -0.10014206
000160 d8 b2 b6 bb 6a ca 8f 3d 98 5b d8 3d 7b 67 ff bb
       -0.005575519 0.07021029 0.10564345 -0.0077943183
000170 87 d3 96 bd b9 84 f6 3d 37 bd 52 3d 7f 86 b4 3c
       -0.073645644 0.120370336 0.05144998 0.022036789
000180 6a ba 6f bc 3d 63 7a 3c 20 50 9b 3c 94 43 e9 3c
       -0.014631847 0.015282449 0.018959105 0.028474607
000190 2c df 1f be 0d 6c 74 bc d2 8c 2c 39 24 12 2b bd
       -0.15612477 -0.014918339 0.00016455658 -0.041765347
0001a0 fd 30 32 3c 2e 8e 7d bd a3 62 52 3e d7 4a b1 3d
       0.0108759375 -0.06190317 0.2054544 0.08656853
0001b0 00 da 2f be 30 cb bc bd ac e1 39 bd b5 7d e3 3d
       -0.17173004 -0.092184424 -0.045381233 0.11107961
0001c0 ba e0 a8 3d 75 0d 24 3d e5 ae 0e 3c 26 08 c7 bd
       0.08245988 0.040051896 0.00870869 -0.09718351
0001d0 09 1a c4 bd 07 12 37 bd 0f 49 d2 bd 28 de 3f 3d
       -0.09575278 -0.044694927 -0.10267841 0.046842724
0001e0 ce 33 93 bd 98 f9 90 bc cb 0b 6d 3d 5b 8a 42 bd
       -0.07187615 -0.01769714 0.057872575 -0.047495227
0001f0 40 92 90 bb df c4 00 3d 67 35 ba 3c a3 00 bd bd
       -0.0044119656 0.03143775 0.022730542 -0.09228637
000200 cb 6c be bc fd 7b ca 3d 01 60 32 bc b0 1e f9 bb
       -0.023245236 0.0988693 -0.010887147 -0.007602535
000210 21 49 2c bd fa 77 1f 3b 04 c5 25 3d f5 ae c8 bc
       -0.04206193 0.0024332986 0.040471092 -0.024497489
000220 45 c0 49 bd 38 d8 d9 3c 1f 3a 4c bc 76 82 1e bd
       -0.04925563 0.026592359 -0.012465029 -0.038698636
000230 23 17 8f 3c e1 83 8d 3d db bc 35 3d 6e 59 95 bc
       0.017467087 0.069099195 0.04436956 -0.01823112
000240 d2 fe a1 3d 4b a8 c3 3b 40 51 04 be cb 37 e7 3d
       0.07909931 0.00597099 -0.1292162 0.112899385
000250 01 ff 47 be dd 46 d7 3b 34 1d f3 3c 3b 96 84 3d
       -0.1953087 0.006569727 0.029677011 0.06473967
000260 4e c1 9d bd 83 a9 54 3e 84 1a 98 3d 10 97 49 3d
       -0.077028856 0.20767789 0.074269325 0.04921633
000270 99 67 24 3c 68 33 d5 3c 6c 6e 92 3d 88 eb 07 3e
       0.010034465 0.026025489 0.071499676 0.13273442
000280 34 3c 2f 3d 84 19 94 bd b9 f6 d3 bd c4 82 06 3e
       0.042782024 -0.07231429 -0.10349793 0.1313582
000290 40 c7 b3 3d 45 65 30 be ad 42 60 bd 94 a2 eb bd
       0.08778238 -0.17226131 -0.054751087 -0.11505619
0002a0 f0 ce 08 be 21 88 32 3d 6e 9f 50 3e b3 08 26 3e
       -0.1336019 0.043586854 0.20373318 0.16214256
0002b0 c5 1a 1c 3d ed 9e 09 3e d6 32 9f bd 40 e6 f4 bd
       0.038111467 0.13439532 -0.07773368 -0.11957979
0002c0 f3 74 01 3e a0 d0 da bd 96 73 f6 3d 84 7f 9f bd
       0.12642269 -0.10684323 0.12033765 -0.077879936
0002d0 98 6f d1 3d 85 b8 8f 3c 19 81 24 be 38 a8 a0 bd
       0.10226363 0.01754404 -0.16064872 -0.07844585
0002e0 a1 7b d4 3d 74 7a 94 3c 29 a8 af 3d 58 3c 3c bc
       0.10375143 0.018124796 0.08576996 -0.011488996
0002f0 cc c7 11 be a4 ce e9 3d f3 85 0c 3d a2 84 da 3d
       -0.14236373 0.11416367 0.03430743 0.10669829
000300 09 33 dc bd ba a0 34 3d ad af 7b bc a6 54 10 be
       -0.10751922 0.044098593 -0.015361709 -0.14094791
000310 4a 6c 77 3d f8 61 a0 3c 7b cf e3 bd e8 09 97 3d
       0.060406007 0.019577965 -0.11123558 0.07374936
000320 0d 54 60 bd a8 e7 2a bd 52 b5 23 bd be 14 05 3d
       -0.054767657 -0.04172483 -0.039967842 0.032490484
000330 03 bd 49 bb f4 6f f0 3d bc af cd bd e5 68 42 3c
       -0.0030782826 0.11740103 -0.10043284 0.011865829
000340 08 f3 43 bc e6 ba 81 3d bb b6 b8 3d da 27 a0 3d
       -0.011959799 0.06334476 0.09019228 0.07820101
000350 0a 4b 12 3e 84 be 00 3e f9 2a 96 3d 79 20 e9 bd
       0.14286438 0.12572676 0.07332415 -0.11383147
000360 b5 a9 c3 bd 62 9c 63 3d cc 31 99 3d 2d 1a dc 3d
       -0.095538534 0.05556906 0.07480201 0.1074718
000370 82 cf 79 bd 4c ec dd 3b 43 d8 be bb f2 28 0a be
       -0.06098891 0.0067725535 -0.0058241202 -0.13492182
000380 ae 6f 23 3d 47 16 bc 3d b3 b1 be bc b5 60 47 3d
       0.039901428 0.091839366 -0.023278093 0.04867621
000390 fa aa 40 bc 29 99 7c 3c 92 7b 89 bc c1 8f 80 bc
       -0.011759514 0.015417376 -0.016782556 -0.015693547
0003a0 aa 5d e3 bd 04 d5 c8 3d 50 44 12 be 0a 7c 2a be
       -0.111018494 0.098062545 -0.14283872 -0.1664888
0003b0 0d 0f 02 be 5b 2e bd 3d e9 3f 90 3d 4a c9 21 bd
       -0.12701054 0.09237357 0.0704344 -0.039498605
0003c0 41 39 7c 3d 77 4d 13 3e 7f e0 62 bd 6a 19 d4 3b
       0.06157804 0.14385019 -0.055389877 0.006472756
0003d0 b3 d0 b8 3c 26 79 b0 3d e8 d9 93 bc 55 02 d1 3d
       0.022560453 0.08616857 -0.018048242 0.10205523
0003e0 ef 76 a5 3d d3 28 bb 3b 23 8a eb 3d 1b ab 28 be
       0.080793254 0.0057116537 0.11500957 -0.16471522
0003f0 fb f3 da bc 7a 2c 26 bd 6d f5 07 be cd 16 16 bd
       -0.026727667 -0.04056976 -0.13277216 -0.03664284

critic.2.bias f4 [64]
000000 d2 d9 0c be 8a 4d 27 be 23 dd 55 3c 18 ee bf 3d
       -0.13754967 -0.16338173 0.013053211 0.09371585
000010 e3 a3 18 3d e6 e4 7c b9 67 1c 0e bb f5 fb 1c be
       0.03726567 -0.00024117864 -0.002168441 -0.15330489
000020 56 0d 2d 3d 68 4e 31 3d d5 a3 02 be 90 04 90 bd
       0.042249046 0.043287665 -0.1275781 -0.0703212
000030 29 56 1f be 94 7a 32 be d5 90 91 bd b8 b7 47 bd
       -0.15560211 -0.17429572 -0.07107703 -0.048759192
000040 10 3a 2e 3c f7 56 ac 3d 53 36 4d be a8 d7 2b bc
       0.01063396 0.08415025 -0.20040254 -0.010488428
000050 5a c4 89 bd 47 fb 1c 3e 60 bb 9d 3d 4f ac e7 bd
       -0.06726904 0.1533023 0.077017546 -0.11312162
000060 4a 7b 01 be b5 9d 62 3d 40 d4 51 bc 82 0a ee 3c
       -0.12644687 0.055326182 -0.012806952 0.029057745
000070 64 c4 61 3e ce 81 10 3e 62 89 eb bd 59 df 6c 3d
       0.22047573 0.14112017 -0.11500813 0.05783019
000080 40 44 6e 3c 77 b0 4b bc 72 ff 9d 3d 2d 14 31 3b
       0.014542639 -0.012432209 0.07714738 0.0027020082
000090 8e 00 33 bd 57 f4 ab bd 10 75 74 3c 0c cf 09 be
       -0.0437017 -0.083962135 0.014920488 -0.13457888
0000a0 46 8d ba 3c 72 f2 db bc 51 71 00 be 19 3d 51 be
       0.022772443 -0.026849005 -0.12543227 -0.20433463
0000b0 e0 cf e9 3d 7c fc 8d bc ba 80 c7 3c 17 4e ee bc
       0.11416602 -0.017332308 0.024353374 -0.02908997
0000c0 92 f6 d1 bd 10 50 40 bd 01 db 16 be d4 7e b2 bd
       -0.10252108 -0.046951354 -0.14731981 -0.08715597
0000d0 0e be 00 be 94 b1 b7 bd 79 fa 03 3e 81 b1 48 be
       -0.125725 -0.08969417 0.12888516 -0.19598962
0000e0 b3 be 34 be bf 7f 0a bd 12 63 41 be 7a 49 c1 3b
       -0.17650871 -0.033813234 -0.18885449 0.0058986517
0000f0 71 18 14 be 37 36 be bc a7 92 43 3d 1b fd fe bd
       -0.14462449 -0.023219211 0.04774728 -0.1245062

critic.4.weight f4 [1, 64]
000000 ac 5d 65 be 1f 77 12 be a5 b2 87 bd b8 64 81 3d
       -0.22399014 -0.14303254 -0.066258706 0.06318039
000010 01 5a 29 be a3 a4 ec bd 93 cb 0b be 47 78 bb bd
       -0.1653824 -0.115548395 -0.13651876 -0.091538005
000020 be 63 c2 3d 81 37 2d be f0 52 4c be 67 9d 33 be
       0.094916806 -0.16915704 -0.19953513 -0.17540513
000030 2b 14 06 bd 83 be db bd 50 13 b4 bd 99 21 86 3e
       -0.032734077 -0.107296966 -0.08792746 0.26197508
000040 fc 15 e0 bd a2 2a 08 3e a3 0b 49 be 6b de 30 be
       -0.10941693 0.13297513 -0.19633345 -0.17272346
000050 dc 1b 4a 3e cc 85 24 3e 36 d7 11 3e f4 43 77 3c
       0.1973719 0.16066664 0.14242253 0.015091885
000060 a8 76 10 be da 42 a6 bd 29 b8 17 be 85 e4 a1 3d
       -0.14107764 -0.0811822 -0.14816345 0.07904915
000070 de 59 2b 3e 1c 6e 32 be 50 a4 19 3e da 76 4c bd
       0.167335 -0.17424816 0.15004086 -0.049918033
000080 4e 06 da bd 58 4b 3c be 0b 3f 39 be 7f 17 63 be
       -0.10645734 -0.18388116 -0.18090455 -0.22176932
000090 a8 3b eb 3d d4 11 13 be d2 34 ab bd 5c 89 b0 bd
       0.11485988 -0.1436227 -0.08359684 -0.08619949
0000a0 8c 7e 30 be b1 ee bc 3d 34 fa 1a bd 6a 12 07 be
       -0.17235774 0.09225214 -0.03783627 -0.13190618
0000b0 28 40 65 3e 9d 8f 41 be 03 16 35 3e e2 37 43 3e
       0.22387755 -0.1890244 0.17684178 0.19064286
0000c0 56 85 04 be 9c 22 3d bd a8 1c 59 be 90 65 44 3d
       -0.12941489 -0.046175584 -0.21202338 0.04794842
0000d0 5b 8a 1b 3e 95 2a 1a be 6f 57 6e 3e 98 db 0d be
       0.15189497 -0.15055306 0.23275541 -0.138533
0000e0 17 dd 10 be 7d cd 92 3d e8 96 39 be 1c 13 43 3d
       -0.14146839 0.071681 -0.18123972 0.047625646
0000f0 77 c5 ee bd b1 e2 32 be e2 30 5f bc 09 fd c9 bd
       -0.11658757 -0.17469288 -0.013622494 -0.09862716
