PPO_drone_v1.pth (torch, 94145 bytes, 11 tensors)

actor.0.weight f4 [64, 109]
0.06929949 -0.02051751 -0.0010131809 0.012489778 0.041823328 0.0286608 -0.036500446 0.093606904
-0.048081588 0.068162836 0.0013764051 0.0019401243 0.06910892 -0.059773803 -0.013356389 -0.024311692
0.038356937 -0.08121424 -0.05084113 -0.020058222 -0.005887024 -0.0533916 -0.07944122 0.050528176
-0.07186426 -0.078416124 -0.05332096 -0.032679956 0.09135866 -0.050921112 0.040592365 -0.08115114
-0.07864152 -0.05165869 0.060568653 0.06310305 0.0015707687 -0.011279338 0.01910856 -0.07455866
-0.025780667 -0.086440496 0.04138007 0.027362462 0.062081587 0.038645066 0.014633915 0.02433578
0.07482397 0.010515212 0.066064596 0.0062471284 -0.0647458 0.056871165 -0.011674713 -0.0076333224
-0.053516056 -0.07660358 -0.013604637 0.03235385 -0.016638543 -0.005323185 -0.07332836 -0.037060667
0.08055504 0.093353674 0.00088267983 -0.073236346 -0.022287965 0.017529909 0.029838387 -0.07739866
-0.026419628 0.019349974 -0.05133628 0.031619217 -0.067186296 0.02133618 0.08459881 -0.01694316
-0.0021445414 0.055616364 0.081922844 -0.023599219 0.083798096 0.044075653 -0.010476794 0.021453157
0.039747357 -0.044708677 0.08086198 -0.00046843363 0.02757019 0.041999135 0.03826871 -0.013688404
-0.09159889 0.044978585 0.0940123 0.08296465 0.16147657 0.2620798 0.27703398 0.11890577
0.14651796 0.2901508 0.0078533515 0.18248932 0.07343023 -0.042786494 0.048907623 0.060846407
0.105088525 0.035071306 -0.059074648 0.028066847 -0.039417736 0.06239318 0.11100486 0.0032639354
0.060012013 -0.01639403 0.022207184 0.07473761 -0.033780582 0.0057836412 0.06433125 0.043204833
0.11402804 -0.025670629 0.089612864 0.02172741 0.060613453 0.010684666 -0.021563377 0.08197805
-0.0547285 -0.018506717 0.013883467 0.052012764 0.027037788 0.018959828 0.07807563 0.0433707
0.11756724 -0.048588037 0.00077170687 -0.047838897 0.0173629 0.001688565 0.010713543 0.011242158
0.06595324 -0.060801815 0.1012201 0.119019434 0.112324044 0.06689386 0.06894438 0.05048298
0.0138649205 0.112694815 0.046998262 0.09822054 0.11913146 0.07829861 0.08149542 -0.04243894
-0.046457715 -0.017947411 0.07376967 0.07361992 0.07955441 -0.01643584 -0.042142183 0.0010381547
0.04554832 0.0044798013 0.08021538 0.114775576 0.030310126 0.05048595 0.024389729 -0.0031927011
0.037788805 -0.009230466 0.009561935 0.081555285 0.12619959 0.031387165 0.010050579 0.09045599
0.047408365 -0.021441353 -0.03733541 -0.03560436 0.07976321 0.06755758 0.07386879 0.024782758
-0.060800202 -0.021786418 0.0060580326 -0.03749767 -0.050638575 0.09811154 -0.015710227 0.044033222
0.09575628 0.21136117 -0.14290747 0.07176497 0.16306813 0.044400293 -0.18688978 0.021648707
0.0883185 0.07542766 -0.03723826 0.058316622 0.006564226 -0.037487093 0.09794916 -0.001170083
-0.07055039 0.09195578 0.08131165 0.0764746 0.040794212 0.059988253 0.08582636 -0.050327603
-0.010581853 0.039524745 0.106783435 0.09098447 -0.06228282 -0.048936103 0.10194208 0.05896471
0.06312659 -0.046670217 -0.009527534 -0.03375556 0.08512829 0.019893968 0.07484734 0.03263927
0.07356253 -0.0017947366 -0.003769816 0.11885098 -0.051025134 0.11577647 -0.056289334 0.09522806
00000000: e4ec 8d3d 5614 a8bc b6cc 84ba eda1 4c3c
00000010: f04e 2b3d 0eca ea3c 7e81 15bd fab4 bf3d
00000020: 33f1 44bd f598 8b3d 7e68 b43a c54b fe3a
00000030: fa88 8d3d 60d5 74bd c1d4 5abc 5029 c7bc
00000040: 2a1c 1d3d a753 a6bd ca3e 50bd 2451 a4bc
00000050: f0e7 c0bb 26b1 5abd 14b2 a2bd a2f6 4e3d
00000060: 922d 93bd a298 a0bd 1467 5abd 6bdb 05bd
00000070: 401a bb3d a892 50bd 2e44 263d 9232 a6bd
00000080: ce0e a1bd 1098 53bd d616 783d 2c3c 813d
00000090: 40e2 cd3a f9cc 38bc 8e89 9c3c 36b2 98bd
000000a0: fa31 d3bc b707 b1bd 267e 293d 3e27 e03c
000000b0: 4349 7e3d 4a4a 1e3d 17c3 6f3c d45b c73c
000000c0: 4f3d 993d ff47 2c3c e04c 873d b6b4 cc3b
000000d0: 7299 84bd bdf1 683d 4c47 3fbc f320 fabb
000000e0: a733 5bbd 56e2 9cbd fce5 5ebc 7885 043d
000000f0: 8e4d 88bc 1d6e aebb 2e2d 96bd edcc 17bd
00000100: 0afa a43d 3630 bf3d a463 673a f0fc 95bd
00000110: 4095 b6bc e29a 8f3c a26f f43c 3083 9ebd
00000120: fa6d d8bc d683 9e3c fe45 52bd 2783 013d
00000130: f898 89bd 36c9 ae3c 2442 ad3d 62cc 8abc
00000140: 6f8b 0cbb fccd 633d 2ac7 a73d 2653 c1bc
00000150: 569e ab3d ac88 343d dca6 2bbc 88be af3c
00000160: 20ce 223d 7220 37bd f79a a53d 1998 f5b9
00000170: e1da e13c 4907 2c3d a7bf 1c3d 5445 60bc
00000180: 3398 bbbd 773b 383d 8589 c03d 5fe9 a93d
00000190: 1d5a 253e 532f 863e 66d7 8d3e de84 f33d
000001a0: ce08 163e a58e 943e 58ab 003c 7bde 3a3e
000001b0: 9762 963d e440 2fbd 5c53 483d 153a 793d
000001c0: a738 d73d eea6 0f3d 42f8 71bd 72ec e53c
000001d0: 7e74 21bd fe8f 7f3d 8456 e33d c0e7 553b
000001e0: 28cf 753d c64c 86bc d7eb b53c 0810 993d
000001f0: 825d 0abd b384 bd3b 1ac0 833d 8df7 303d
00000200: 8887 e93d 364b d2bc f386 b73d aefd b13c
00000210: d045 783d bd0e 2f3c aea5 b0bc 1ce4 a73d
00000220: fe2a 60bd 669b 97bc 7b77 633c 560b 553d
00000230: 5a7e dd3c a451 9b3c 1ee6 9f3d 7aa5 313d
00000240: 18c7 f03d 4004 47bd 5f4c 4a3a b8f2 43bd
00000250: a43c 8e3c d752 dd3a db87 2f3c 0731 383c
00000260: 7e12 873d 530b 79bd 7c4c cf3d 76c0 f33d
00000270: 260a e63d a6ff 883d b632 8d3d 3ec7 4e3d
00000280: b129 633c 8acc e63d 4081 403d da27 c93d
00000290: 32fb f33d 065b a03d 12e7 a63d 74d4 2dbd
000002a0: 724a 3ebd 7306 93bc 8e14 973d 0ac6 963d
000002b0: 6ced a23d 74a4 86bc 489d 2cbd b112 883a
000002c0: e090 3a3d 4ccb 923b f647 a43d 750f eb3d
000002d0: f14c f83c 5bca 4e3d f8cc c73c a33c 51bb
000002e0: 6fc8 1a3d 613b 17bc aaa9 1c3c 7506 a73d
000002f0: 773a 013e d48f 003d 2fab 243c fd40 b93d
00000300: 462f 423d c7a5 afbc 04ed 18bd e1d5 11bd
00000310: e55a a33d a15b 8a3d 8548 973d 3605 cb3c
00000320: a209 79bd 6e79 b2bc 7682 c63b 2897 19bd
00000330: 656a 4fbd b4ee c83d bcb2 80bc 2e5c 343d
00000340: de1b c43d 106f 583e 5656 12be 83f9 923d
00000350: 55fb 263e 15dd 353d 0960 3fbe a158 b13c
00000360: 54e0 b43d d179 9a3d 2587 18bd 69dd 6e3d
00000370: b818 d73b 118c 19bd 9299 c83d 785d 99ba
00000380: b97c 90bd 5053 bc3d b986 a63d b79e 9c3d
00000390: d517 273d 3eb6 753d bbc5 af3d 5124 4ebd
000003a0: 825f 2dbc b3e4 213d 46b1 da3d 1156 ba3d
000003b0: 451c 7fbd 3971 48bd 02c7 d03d fb84 713d
000003c0: 8348 813d 4529 3fbd 6019 1cbc 4543 0abd
000003d0: be57 ae3d adf8 a23c 9049 993d c1b0 053d
000003e0: f4a7 963d 5e3d ebba 040f 77bb 2568 f33d
000003f0: bbff 50bd 371c ed3d a58f 66bd ee06 c33d

actor.0.bias f4 [64]
-0.012477103 0.05234869 -0.007830704 0.034576345 -0.105238274 0.07871398 0.06141481 -0.030520525
-0.04479267 -0.059423923 0.008313738 -0.06465486 0.007279324 -0.009061642 -0.060658 -0.002083543
0.038818996 -0.006806297 0.015758509 0.10613107 -0.0783571 -0.0061438032 0.06729025 -0.0088677835
-0.05739625 -0.062063683 0.045053434 -0.043595787 0.12784277 -0.076380864 -0.06897093 0.01979146
-0.022177588 0.06858672 0.05021889 -0.06551148 0.06924138 -0.09270435 0.036346897 0.045867264
0.025983185 0.07597836 0.113585584 -0.09856793 0.10428822 -0.060346484 0.06376405 0.011349274
0.073881544 0.018149583 -0.01911432 0.0433876 -0.021300828 0.030977305 0.061470047 -0.10102159
-0.08943598 0.10351756 -0.015623002 -0.030480348 0.12977785 0.1163219 0.04217119 -0.026325773
00000000: c36c 4cbc 946b 563d 5a4c 00bc ed9f 0d3d
00000010: 2a87 d7bd cc34 a13d 198e 7b3d 2e06 fabc
00000020: 8578 37bd 8066 73bd 5836 083c c469 84bd
00000030: 6587 ee3b 4877 14bc 8674 78bd 0d8c 08bb
00000040: ab00 1f3d 5c07 dfbb fd17 813c 3f5b d93d
00000050: b079 a0bd f551 c9bb 78cf 893d 2e4a 11bc
00000060: 5518 6bbd 7d36 7ebd f389 383d 7f91 32bd
00000070: 37e9 023e 926d 9cbd a240 8dbd b321 a23c
00000080: c6ad b5bc 3277 8c3d 53b2 4d3d e22a 86bd
00000090: 6dce 8d3d c7db bdbd 7ce0 143d 50df 3b3d
000000a0: b0da d43c 8b9a 9b3d 8f9f e83d fcdd c9bd
000000b0: 1095 d53d e02d 77bd ba96 823d 4ef2 393c
000000c0: 354f 973d 6fae 943c a295 9cbc 32b7 313d
000000d0: 137f aebc 1ec4 fd3c 04c8 7b3d 68e4 cebd
000000e0: 362a b7bd 0401 d43d 9ff7 7fbc ecb1 f9bc
000000f0: 7ce4 043e 2d3a ee3d b3bb 2c3d 26a9 d7bc

actor.2.weight f4 [64, 64]
0.09282552 -0.10209932 -0.06160496 0.16076703 -0.008215494 0.033627998 0.26392794 0.0071915435
0.10080926 0.045735054 0.05664111 0.10003485 0.11141142 0.056666363 0.07975881 -0.050411124
-0.03206457 -0.026229355 0.13761157 0.005652942 -0.10886701 -0.0051394207 -0.011033571 0.15722671
0.058875713 -0.04361287 0.13850896 -0.063035004 0.0027221714 0.06374826 0.17146905 0.07412009
-0.1572157 0.06221771 0.16120188 0.018817332 0.049839936 -0.11675049 0.0013133344 -0.054739263
0.0066652475 -0.02891692 -0.06846613 -0.008030024 0.054417264 0.02258265 0.0447702 -0.016925473
-0.18327789 -0.037204355 -0.23658398 -0.17930223 0.02591454 0.078656174 -0.11095079 -0.024980525
0.08166495 0.18517405 -0.13789797 -0.06919454 0.088387854 -0.06456309 -0.11586029 -0.02321571
0.05273593 0.039744213 0.21786122 0.08589562 0.1426292 0.07735897 0.26795775 0.17401493
-0.11699874 -0.025548501 -0.083116435 0.05503677 0.044789836 0.15437064 -0.14022423 0.11096811
-0.04004178 -0.11176014 -0.17251572 0.10226414 -0.09899676 -0.055053778 -0.0052097905 0.05834013
-0.23669638 -0.10679677 -0.0033351656 -0.057747755 -0.03694581 -0.04692147 -0.03832605 -0.012777502
-0.2024117 0.042320464 0.06609146 0.060509015 -0.094350524 -9.9229605e-05 -0.1311519 -0.052933123
0.175582 -0.2003963 0.0032045266 0.04863931 -0.09120161 -0.12428919 -0.2822711 -0.02227625
0.0990905 0.031541236 0.17499408 0.03885261 0.1291301 -0.13706826 -0.21399197 0.00031919935
0.21505369 -0.065717265 -0.018638004 -0.011880563 -0.18039793 0.19232969 0.08037882 0.104898684
0.014018144 -0.11267352 0.0842974 -0.030610813 -0.12958391 -0.15680358 -0.054374125 -0.042059496
-0.2341235 0.07649182 0.012153279 0.0542426 0.009247569 0.17838708 0.056928582 0.20769659
0.03423077 -0.020255094 0.03792871 -0.059618954 0.07326797 -0.09047927 -0.16495089 -0.11225673
0.032377347 -0.03114953 -0.13240743 -0.012740072 0.109196655 -0.00557192 -0.05907879 -0.05185093
0.18100527 -0.14181398 -0.102076136 0.11536299 -0.009295373 -0.049571775 0.09500669 -0.037652817
-0.1272341 0.1065711 0.040893823 0.13399348 0.16980574 -0.1465839 -0.101984225 -0.006606387
0.12378574 0.03537738 0.25495264 0.19216417 -0.04768338 -0.022434128 -0.10321653 0.069777206
-0.07836587 -0.17754163 -0.10413185 0.18255925 -0.07370502 0.011240824 -0.034413964 0.004131476
0.024109773 0.083338015 -0.044380214 -0.062691376 -0.0044663055 0.12813178 0.029070066 -0.11370236
0.00018153786 0.179137 0.016610365 0.076430716 -0.026417548 -0.057007555 -0.19105828 0.046827782
0.022822523 -0.08501753 0.014646833 0.05769717 0.07903492 -0.03190354 -0.12002493 0.15136787
0.008761982 0.022639776 -0.050437726 -0.07993251 -0.08856494 -0.0034776425 -0.01739326 0.11898425
-0.08074405 -0.07298671 0.0096753845 0.09338615 -0.18710844 0.0111617865 0.10764237 0.042677835
0.1936849 -0.030653143 -0.15208359 0.19591123 0.0073277685 0.063691 -0.029876845 -0.12990248
0.11144007 -0.07941137 0.15479255 -0.10268727 -0.12495807 -0.004240835 -0.041357152 -0.014848545
0.032866843 0.21214996 -0.1674759 0.007482619 0.019188508 -0.044649765 -0.030047981 -0.090693735
00000000: 4e1b be3d 7319 d1bd 7c55 7cbd 1da0 243e
00000010: 489a 06bc 83bd 093d 9021 873e 0aa7 eb3b
00000020: 1675 ce3d ae54 3b3d 8200 683d 12df cc3d
00000030: ac2b e43d fd1a 683d 9658 a33d e57b 4ebd
00000040: 2356 03bd f2de d6bc 0cea 0c3e 513c b93b
00000050: abf5 debd 9668 a8bb 27c6 34bc 0a00 213e
00000060: a927 713d 69a3 32bd 4bd5 0d3e 7f18 81bd
00000070: 7566 323b 738e 823d 9595 2f3e 46cc 973d
00000080: 27fd 20be ffd7 7e3d 1b12 253e ce26 9a3c
00000090: f624 4c3d e21a efbd 3124 ac3a 4736 60bd
000000a0: 2668 da3b 2de3 ecbc f837 8cbd 5d90 03bc
000000b0: a3e4 5e3d 40ff b83c f560 373d 4aa7 8abc
000000c0: 33ad 3bbe 9863 18bd 1243 72be 019b 37be
000000d0: bb4a d43c 7d16 a13d 2b3a e3bd f5a3 ccbc
000000e0: f43f a73d 449e 3d3e 2035 0dbe deb5 8dbd
000000f0: b104 b53d a739 84bd 2948 edbd df2e bebc
00000100: a101 583d d4ca 223d 0317 5f3e 0bea af3d
00000110: 640d 123e 616e 9e3d c231 893e f830 323e
00000120: 099d efbd 174b d1bc f338 aabd 3c6e 613d
00000130: 8c75 373d 5613 1e3e f196 0fbe 4043 e33d
00000140: d902 24bd 80e2 e4bd f6a7 30be dd6f d13d
00000150: d0be cabd 1280 61bd e4b6 aabb 0ff6 6e3d
00000160: 8960 72be 44b8 dabd cb92 5abb e988 6cbd
00000170: 7d54 17bd ba30 40bd c7fb 1cbd ba58 51bc
00000180: 0345 4fbe 3958 2d3d f65a 873d 4dd8 773d
00000190: d93a c1bd 7d19 d0b8 af4c 06be 67d0 58bd
000001a0: c5cb 333e b034 4dbe 0903 523b 033a 473d
000001b0: e9c7 babd 558b febd d685 90be af7c b6bc
000001c0: f6ef ca3d 6231 013d a631 333e ea23 1f3d
000001d0: ae3a 043e 9f5b 0cbe b620 5bbe 365a a739
000001e0: 0937 5c3e c696 86bd baae 98bc b1a6 42bc
000001f0: 3cba 38be 13f2 443e a79d a43d 1fd5 d63d
00000200: 5cac 653c 60c1 e6bd 1ea4 ac3d 87c3 fabc
00000210: a5b1 04be 1e91 20be 67b7 5ebd 9446 2cbd
00000220: 12be 6fbe bea7 9c3d 8c1e 473c 7d2d 5e3d
00000230: 1e83 173c 1aab 363e f22d 693d 6aae 543e
00000240: 9035 0c3d 03ee a5bc 235b 1b3d 0133 74bd
00000250: 840d 963d 324d b9bd e3e8 28be dbe6 e5bd
00000260: 1c9e 043d 4d2d ffbc d095 07be bcbb 50bc
00000270: 7fa2 df3d a794 b6bb 9afc 71bd a461 54bd
00000280: 7259 393e af37 11be 4b0d d1bd 6e43 ec3d
00000290: 9f4b 18bc c60b 4bbd de92 c23d d739 1abd
000002a0: a849 02be f341 da3d 4880 273d 9635 093e
000002b0: 8ee1 2d3e 171a 16be 1bdd d0bd 647a d8bb
000002c0: 6183 fd3d dfe7 103d 2789 823e afc6 443e
000002d0: a64f 43bd c7c7 b7bc 3063 d3bd 5ae7 8e3d
000002e0: 497e a0bd 79cd 35be 1443 d5bd d0f0 3a3e
000002f0: a8f2 96bd 6f2b 383c a8f5 0cbd 5561 873b
00000300: dc81 c53c 1fad aa3d 07c8 35bd 5664 80bd
00000310: 165a 92bb fa34 033e 5924 ee3c c8dc e8bd
00000320: 335b 3e39 b16f 373e 7612 883c b587 9c3d
00000330: 9d69 d8bc c180 69bd c8a4 43be 7dce 3f3d
00000340: 4df6 ba3c ac1d aebd 45f9 6f3c de53 6c3d
00000350: 0fdd a13d 49ad 02bd a1cf f5bd 2e00 1b3e
00000360: 6b8e 0f3c 0d77 b93c ca97 4ebd a8b3 a3bd
00000370: 8961 b5bd 29e9 63bb 4f7c 8ebc 04ae f33d
00000380: 235d a5bd 0e7a 95bd 8185 1e3c 3d41 bf3d
00000390: 5b99 3fbe eddf 363c 9a73 dc3d f4ce 2e3d
000003a0: 5655 463e 4d1c fbbc cdbb 1bbe f49c 483e
000003b0: c71d f03b 6d70 823d 49c0 f4bc 2805 05be
000003c0: b13a e43d 6ea2 a2bd f081 1e3e b44d d2bd
000003d0: 04ea ffbd b4f6 8abb 1e66 29bd 5047 73bc
000003e0: 629f 063d d73d 593e cd7e 2bbe c230 f53b
000003f0: 3831 9d3c ace2 36bd 2f27 f6bc a3bd b9bd

actor.2.bias f4 [64]
0.11529328 -0.0025464192 0.09817263 0.055246975 0.021494785 0.0037987984 0.011974735 0.1117732
-0.019680168 0.012332326 -0.06846956 0.015874062 0.027188035 -0.114008404 -0.07483857 -0.01280128
-0.011562178 -0.083435394 0.12006963 0.005144783 -0.085813604 0.0708537 -0.095095605 -0.0049747345
-0.07601174 0.022690779 -0.05287268 -0.03499708 -0.10778262 0.02509379 -0.024786517 0.11819963
0.102160715 -0.06399195 0.01912027 0.116593316 -0.10943182 -0.07871925 0.055458408 -0.090414025
-0.09687563 0.07345195 -0.11939836 0.08652031 -0.009156733 -0.05662397 -0.0359589 0.020281376
0.028037842 -0.07042411 0.027413683 0.0015379365 0.02577996 0.003697535 0.026438564 -0.11751502
0.061772764 -0.08733295 0.017592682 0.026609192 -0.0020341019 -0.06492351 -0.061328456 -0.019089384
00000000: e21e ec3d d3e1 26bb bb0e c93d a74a 623d
00000010: d515 b03c 43f5 783b ae31 443c 59e9 e43d
00000020: 4e38 a1bc 860d 4a3c c539 8cbd 520a 823c
00000030: 71b9 de3c 3d7d e9bd f744 99bd 76bc 51bc
00000040: 4a6f 3dbc 2de0 aabd 11e7 f53d 9195 a83b
00000050: 0bbf afbd bf1b 913d 7cc1 c2bd 1903 a3bb
00000060: 0bac 9bbd 03e2 b93c 0691 58bd 1959 0fbd
00000070: 22bd dcbd 7e91 cd3c 180d cbbc a612 f23d
00000080: a339 d13d 360e 83bd 1da2 9c3c 7ac8 ee3d
00000090: ca1d e0bd 8f37 a1bd 5b28 633d fd2a b9bd
000000a0: bb66 c6bd fa6d 963d 2187 f4bd 8f31 b13d
000000b0: 1f06 16bc 89ee 67bd a449 13bd 2125 a63c
000000c0: 9eaf e53c 843a 90bd a992 e03c 9694 c93a
000000d0: 7f30 d33c 5852 723b b095 d83c b7ab f0bd
000000e0: 7005 7d3d 9edb b2bd 871e 903c 85fb d93c
000000f0: 914e 05bb 9ef6 84bd 8c33 7bbd 5761 9cbc

actor.4.weight f4 [3, 64]
-0.09328907 -0.71352804 0.066389844 -0.08987529 -0.3094046 0.36859196 -0.14185463 -0.67609525
0.24502751 -0.39441353 0.16947426 0.24033566 -0.21120153 0.080987856 0.20965078 0.023167111
0.26351455 -0.18749215 -0.21470562 0.053562745 -0.1988792 -0.19406588 -0.6402022 0.474849
0.34130758 -0.16487174 0.12582733 0.3001093 -0.39911824 -0.0019300277 0.24860585 0.19231826
-0.17000677 -0.39184716 0.31548396 -0.62795377 0.439522 -0.29165956 0.465789 -0.15541403
-0.41601324 0.3867237 0.43877053 -0.11764841 0.8582912 0.36131406 -0.013700015 0.5673034
-0.4578895 0.38730475 0.19931526 -0.19654308 0.22602496 1.0169584 -0.4211083 0.24021073
0.36109284 0.056448042 -0.32846603 0.07368929 0.4400091 0.47880065 0.23790242 -0.09350483
0.10346413 -0.023625797 0.20238574 0.26364598 0.27417964 -0.4102515 0.3689992 0.35991123
-0.6733614 -0.13490354 -0.13079317 0.022970008 0.11812588 0.17727312 0.14844525 0.23661469
0.11717342 0.20501454 0.14329503 0.3592545 -0.33559665 0.39073294 -0.13007791 0.5076583
-0.30568275 0.09784452 0.35028413 -0.13387851 -0.08300472 -0.48466474 -0.14583729 0.25929707
0.06487044 0.41701323 -0.32445472 0.48465067 0.029928753 0.18412633 0.115211956 0.37542683
0.3091634 0.41367874 -0.079318866 -0.2757401 0.20754768 0.17684048 0.37161896 0.1878728
-0.2385438 -0.4329181 0.282759 -0.23316701 -0.06920074 -0.13178547 -0.25761658 -0.26707882
-0.35516772 -0.35649824 -0.11562744 0.5784067 0.3199972 -0.21368526 -0.20475373 0.2785187
0.34368905 -0.06303352 -0.20076518 -0.021902364 0.37699983 -0.09570906 0.13463028 -0.09421369
0.026085174 0.34964886 -0.07827354 -0.29710323 -0.40198502 0.2974133 -0.109028146 -0.15252271
0.21332848 -0.21048944 0.1788098 0.19656152 0.07308751 -0.7914428 -0.04722641 -0.06180556
0.063972056 0.037487574 -0.5389468 -0.14360994 -0.5976062 0.25116462 -0.19883493 0.09051211
-0.07552362 0.5107888 -0.04868366 0.623841 -0.32855046 -0.31463122 0.45445696 0.025304753
-0.63750196 -0.0008650764 0.7906058 0.055807844 -0.046806306 0.3262613 -0.34080225 0.06811222
0.010944504 0.04208841 0.17396347 -0.3295119 -0.07112242 0.30070907 0.20285189 -0.049691934
0.46564072 0.05099904 0.08500231 0.29520535 0.02585149 0.24615695 -0.40862772 0.23697382
00000000: 570e bfbd c6a9 36bf 66f7 873d 8910 b8bd
00000010: 486a 9ebe 16b8 bc3e 5742 11be 9414 2dbf
00000020: 7ee8 7a3e 92f0 c9be a98a 2d3e 8d1a 763e
00000030: 3745 58be f6dc a53d b2ae 563e f4c8 bd3c
00000040: 61eb 863e f1fd 3fbe cadb 5bbe 9c64 5b3d
00000050: fda6 4bbe 35b9 46be 4be4 23bf 681f f33e
00000060: debf ae3e 23d4 28be e1d8 003e eda7 993e
00000070: 3a59 ccbe fcf8 fcba 8892 7e3e 14ef 443e
00000080: 4116 2ebe 31a0 c8be 1d87 a13e 94c1 20bf
00000090: 0709 e13e 6754 95be e57b ee3e db24 1fbe
000000a0: b0ff d4be a600 c63e 88a6 e03e a6f1 f0bd
000000b0: f9b8 5b3f 28fe b83e 0776 60bc cc3a 113f
000000c0: 7e70 eabe cf4c c63e 4d19 4c3e 9742 49be
000000d0: 1673 673e b12b 823f 829b d7be cdf9 753e
000000e0: 29e1 b83e 1036 673d b32c a8be 69ea 963d
000000f0: df48 e13e 5c25 f53e b19c 733e 767f bfbd
00000100: 00e5 d33d e38a c1bc 353e 4f3e 9bfc 863e
00000110: 4661 8c3e 7c0c d2be 77ed bc3e 4946 b83e
00000120: 6a61 2cbf 2724 0abe a5ee 05be 992b bc3c
00000130: fbeb f13d 1687 353e 0802 183e 1f4b 723e
00000140: 9ef8 ef3d 55ef 513e efbb 123e 35f0 b73e
00000150: 53d3 abbe 260e c83e 2533 05be e5f5 013f
00000160: 7382 9cbe b562 c83d 7158 b33e 7317 09be
00000170: 61fe a9bd fa25 f8be 5f56 15be 96c2 843e
00000180: cbda 843d c282 d53e ee1e a6be 2224 f83e
00000190: 252d f53c 9d8b 3c3e 3ff4 eb3d f237 c03e
000001a0: aa4a 9e3e b3cd d33e ee71 a2bd ce2d 8dbe
000001b0: 6187 543e ac15 353e d744 be3e ba61 403e
000001c0: d344 74be 71a7 ddbe cac5 903e 55c3 6ebe
000001d0: 1eb9 8dbd c5f2 06be 52e6 83be 8ebe 88be
000001e0: 8bd8 b5be f086 b6be 14ce ecbd 7612 143f
000001f0: acd6 a33e 4fd0 5abe f6aa 51be 019a 8e3e
00000200: 03f8 af3e b817 81bd 6395 4dbe 966c b3bc
00000210: 1f06 c13e 1d03 c4bd 85dc 093e 1bf3 c0bd
00000220: 93b0 d53c 2d05 b33e e14d a0bd ea1d 98be
00000230: fbd0 cdbe 8e46 983e 264a dfbd ea2e 1cbe
00000240: c872 5a3e 8b8a 57be eb19 373e 6c47 493e
00000250: e8ae 953d ff9b 4abf 7b70 41bd d427 7dbd
00000260: c803 833d 928c 193d 6bf8 09bf 7c0e 13be
00000270: b8fc 18bf a698 803e 629b 4bbe 6a5e b93d
00000280: 21ac 9abd 0ec3 023f 8468 47bd 0bb4 1f3f
00000290: c437 a8be 5817 a1be 95ae e83e ea4b cf3c
000002a0: 5433 23bf 4bc6 62ba 2465 4a3f c496 643d
000002b0: f8b7 3fbd b90b a73e a27d aebe 6b7e 8b3d
000002c0: 9450 333c e664 2c3d 7b23 323e c9b5 a8be
000002d0: a2a8 91bd 8af6 993e 68b8 4f3e c589 4bbd
000002e0: 7668 ee3e 5fe4 503d b115 ae3d 2825 973e
000002f0: 81c6 d33c 9110 7c3e a737 d1be 44a9 723e

actor.4.bias f4 [3]
-0.005255636 -0.09726681 -0.07185074
00000000: 7837 acbb d233 c7bd 7b26 93bd

critic.0.weight f4 [64, 109]
0.14530139 0.14278214 0.25240678 0.149795 0.222351 0.22653319 0.26107398 0.28236842
0.13627866 0.13768393 0.24991025 0.23553617 0.17837444 0.2061366 0.282781 0.21422578
0.20178972 0.17033237 0.12328893 0.15594949 0.13872764 0.2975566 0.21360907 0.31120697
0.1983401 0.19168617 0.2153726 0.17464174 0.19389229 0.16805616 0.22927226 0.2035801
0.18039085 0.17479207 0.23678495 0.26075247 0.15786906 0.16619183 0.25476694 0.17734502
0.25003383 0.22336726 0.23459229 0.15589978 0.12899667 0.20684609 0.23954608 0.22351062
0.2327537 0.27472013 0.24823508 0.26033354 0.2313692 0.26767188 0.25352353 0.14504397
0.17023031 0.20534152 0.18739294 0.1463859 0.20720649 0.31190237 0.13139996 0.30939525
0.2067087 0.15813537 0.12518841 0.29047534 0.25558043 0.21900705 0.2655162 0.25728822
0.15999612 0.2613771 0.22514182 0.1751762 0.2758017 0.15047158 0.29699558 0.24891493
0.2714472 0.177918 0.2941216 0.26566207 0.25299034 0.2829041 0.14993241 0.2783518
0.1932005 0.26459682 0.26215857 0.27455014 0.31265628 0.12634116 0.17515832 0.24266396
0.2085774 0.14635062 0.12974618 0.2777265 0.49449044 0.235525 0.027335612 -0.49006873
0.58946496 -0.062322404 0.013541496 -0.049216624 -0.014020912 -0.018167578 0.06786216 0.07156204
0.15599796 0.024864018 0.11476467 -0.009528487 0.10255713 0.022450957 0.15458061 0.13733152
0.123303086 0.040919293 0.0942623 0.1362491 0.15896715 0.10206285 0.020057922 0.06825833
0.06191667 0.0239572 0.11225838 0.11284969 0.050027497 0.07831749 0.09469113 0.008443127
0.07609089 0.07774034 0.10867468 -0.012649315 0.094934374 0.14818238 0.002241534 0.09603369
0.1500975 0.11255132 0.044740636 0.018823825 0.035355065 0.0066534975 0.06540228 0.034077037
0.052893978 0.15211903 0.012104401 0.06684925 0.12392802 -0.0005717732 0.10602807 -0.0011353189
-0.0035302225 0.017384548 0.14694394 -0.018583871 0.07162201 0.12316197 0.051153712 0.15611316
0.14476807 0.12678109 0.08474566 0.10685034 0.09369293 0.05112169 0.12011909 0.05951468
0.15541969 0.09450948 0.037533186 0.007202829 0.11630856 0.09548623 0.10375308 0.16949041
-0.007404444 0.04143841 0.07497489 0.1342641 0.0459309 0.09127842 0.041072965 0.023016367
0.018750295 0.09677985 0.15835653 0.13244347 0.16490991 0.15918548 0.12413554 0.13919376
0.07882534 0.072746284 0.09133794 0.06699142 0.043542575 0.09964139 0.06188451 0.090246625
0.07360474 0.014794309 0.15660222 0.04793942 -0.28322268 0.21723777 -0.16868743 0.12500465
1.2331061 -0.8880749 -0.099326134 -0.0059846374 -0.020412354 -0.07796753 -0.04438475 -0.012451738
-0.08895116 -0.0627446 -0.072127394 -0.04387787 -0.1193806 0.008598469 0.04707147 0.005344837
-0.06663925 -0.04854087 0.020285552 0.033398412 -0.10629203 -0.081093386 0.017072177 0.0489812
-0.065005675 0.02964116 0.058288027 0.0068279644 0.024181554 -0.043047372 -0.09615992 -0.057098053
0.041928384 0.036818437 -0.065326184 -0.08789896 -0.0023503825 0.017495135 0.039117992 0.016491195
00000000: e3c9 143e 7b35 123e 763b 813e dc63 193e
00000010: fbaf 633e 51f8 673e 7dab 853e 9892 903e
00000020: a28c 0b3e 04fd 0c3e 79e8 7f3e 6530 713e
00000030: caa7 363e 7915 533e acc8 903e 015e 5b3e
00000040: f7a1 4e3e 9c6b 2e3e e87e fc3d 39b1 1f3e
00000050: 9e0e 0e3e 5759 983e 56bc 5a3e 8556 9f3e
00000060: ab19 4b3e 6149 443e a38a 5c3e 49d5 323e
00000070: b38b 463e ea16 2c3e 59c6 6a3e 4d77 503e
00000080: 61b8 383e b1fc 323e c177 723e 5981 853e
00000090: 6da8 213e 312e 2a3e d070 823e ef99 353e
000000a0: 6f04 803e 63ba 643e f638 703e 31a4 1f3e
000000b0: b417 043e 76cf 533e 914b 753e f8df 643e
000000c0: fc56 6e3e 1ea8 8c3e 5631 7e3e 704a 853e
000000d0: 0cec 6c3e 4a0c 893e d6cd 813e 6886 143e
000000e0: db50 2e3e 0c45 523e efe3 3f3e 2fe6 153e
000000f0: f02d 543e abb1 9f3e b68d 063e 0e69 9e3e
00000100: 72ab 533e 3dee 213e 6431 003e 2fb9 943e
00000110: 70db 823e 6243 603e bdf1 873e 48bb 833e
00000120: 06d6 233e 38d3 853e 948b 663e 6461 333e
00000130: e135 8d3e 3915 1a3e ce0f 983e 8ee3 7e3e
00000140: 21fb 8a3e 2330 363e 1b97 963e dc04 883e
00000150: f387 813e ced8 903e e287 193e 2184 8e3e
00000160: 5ad6 453e 3c79 873e a639 863e d691 8c3e
00000170: 7c14 a03e 945f 013e b45c 333e e77c 783e
00000180: 5095 553e f0dc 153e 2fdc 043e 2b32 8e3e
00000190: da2d fd3e 772d 713e efee df3c 4aea fabe
000001a0: 2de7 163f c745 7fbd 27dd 5d3c 5f97 49bd
000001b0: f8b7 65bc 2cd4 94bc 51fb 8a3d 1e8f 923d
000001c0: eebd 1f3e a0af cb3c bd09 eb3d 5f1d 1cbc
000001d0: 7909 d23d 12eb b73c 614a 1e3e a2a0 0c3e
000001e0: 5486 fc3d fd9a 273d 980c c13d e284 0b3e
000001f0: 49c8 223e 5406 d13d 8350 a43c 06cb 8b3d
00000200: 569c 7d3d e441 c43c b9e7 e53d bd1d e73d
00000210: a2e9 4c3d ec64 a03d 6ced c13d 0b55 0a3c
00000220: 8ad5 9b3d 5436 9f3d d590 de3d 133f 4fbc
00000230: f46c c23d 1fbd 173e b3e6 123b 50ad c43d
00000240: 29b3 193e 4e81 e63d f541 373d 6c34 9a3c
00000250: 79d0 103d 9505 da3b a1f1 853d 5d94 0b3d
00000260: 5ba7 583d 17c5 1b3e 8a51 463c 42e8 883d
00000270: f9cd fd3d 0de3 15ba 3f25 d93d fbce 94ba
00000280: 4e5b 67bb 0a6a 8e3c 7978 163e 343d 98bc
00000290: 8fae 923d 583c fc3d 8e86 513d 21dc 1f3e
000002a0: 153e 143e e7d2 013e 228f ad3d 5ad4 da3d
000002b0: 14e2 bf3d fa64 513d ff00 f63d aac5 733d
000002c0: 5726 1f3e 308e c13d 66bc 193d b505 ec3b
000002d0: 2f33 ee3d 498e c33d 7f7c d43d e58e 2d3e
000002e0: faa0 f2bb 52bb 293d 6f8c 993d 877c 093e
000002f0: 0a22 3c3d 2ef0 ba3d 203c 283d d28c bc3c
00000300: 389a 993c 8434 c63d 3728 223e 439f 073e
00000310: 25de 283e 8501 233e c63a fe3d cf88 0e3e
00000320: 2e6f a13d 01fc 943d 630f bb3d cc32 893d
00000330: b359 323d c910 cc3d 9d7a 7d3d 39d3 b83d
00000340: 15be 963d d463 723c 555c 203e 205c 443d
00000350: 9002 91be 9473 5e3e 66bc 2cbe 3801 003e
00000360: 6cd6 9d3f e058 63bf 806b cbbd c71a c4bb
00000370: cf37 a7bc 71ad 9fbd c9cc 35bd 6002 4cbc
00000380: 072c b6bd 3e80 80bd 87b7 93bd 48b9 33bd
00000390: d17d f4bd 98e0 0c3c 04ce 403d be23 af3b
000003a0: 297a 88bd cbd2 46bd e32d a63c c6cc 083d
000003b0: a3af d9bd 4a14 a6bd f3da 8b3c 83a0 483d
000003c0: b221 85bd 05d2 f23c 6dbf 6e3d 1ebd df3b
000003d0: 6518 c63c 7152 30bd 7eef c4bd a6df 69bd
000003e0: 19bd 2b3d eece 163d bcc9 85bd 5f04 b4bd
000003f0: e008 1abb f551 8f3c 303a 203d 8b18 873c

critic.0.bias f4 [64]
0.18182123 0.06995254 -0.0600184 0.40547007 -0.08212949 0.1757891 0.1575271 0.059008554
0.37619105 0.014035734 -0.1805509 0.24992202 0.2433368 0.20544308 -0.3109019 0.17370988
-0.09629954 -0.09536856 0.12755199 -0.030642731 0.3154879 -0.1778641 0.22428003 -0.16471918
0.31325826 0.07401715 0.1799158 0.18699092 0.0444193 -0.15519385 0.030435486 -0.14011048
0.033782415 0.09211627 -0.030668424 -0.34529868 0.19411579 -0.30883163 -0.23412865 -0.006718302
0.25129223 -0.20620841 -0.016535535 -0.20041887 0.06073834 0.45030814 0.033729672 0.18343349
-0.0069540697 0.07155916 0.20057613 0.10534161 -0.005574569 -0.24066535 0.24864824 0.3115692
0.37390465 0.13525964 0.14393745 -0.09802785 0.18984884 -0.18925463 -0.253849 -0.17237556
00000000: 582f 3a3e 4743 8f3d dbd5 75bd c699 cf3e
00000010: 8233 a8bd 0f02 343e c94e 213e f4b2 713d
00000020: 1d9c c03e 23f6 653c 56e2 38be 8feb 7f3e
00000030: 482d 793e ac5f 523e 892e 9fbe 01e1 313e
00000040: b138 c5bd 9750 c3bd fd9c 023e 7706 fbbc
00000050: a187 a13e 0222 36be aaa9 653e 25ac 28be
00000060: 6363 a03e 4e96 973d d93b 383e 8c7a 3f3e
00000070: 03f1 353d 23eb 1ebe d753 f93c 1f79 0fbe
00000080: 6e5f 0a3d 74a7 bc3d 593c fbbc fdca b0be
00000090: 4ac6 463e 2e1f 9ebe 6cbf 6fbe 3425 dcbb
000000a0: 60a9 803e 4c28 53be 8875 87bc 9b3a 4dbe
000000b0: c4c8 783d ca8e e63e 2028 0a3d fdd5 3b3e
000000c0: f7de e3bb 9c8d 923d d463 4d3e 58bd d73d
000000d0: e0aa b6bb fa70 76be a59d 7e3e 0086 9f3e
000000e0: 6e70 bf3e 8181 0a3e 5764 133e d3c2 c8bd
000000f0: bc67 423e f7cb 41be 7ff8 81be 3883 30be

critic.2.weight f4 [64, 64]
-0.12886153 0.20736912 0.18627971 0.06444897 0.40317982 0.25522476 -0.19500506 0.250232
0.47941968 0.6761116 0.33948666 -0.34022817 -0.337201 -0.033239294 0.034022767 0.6195273
-0.325207 0.06426236 0.32314184 1.3820637 -0.18816201 0.44799647 -0.6139812 0.46153662
-0.6794312 -0.13696703 -0.101605356 -0.27619883 -0.5393477 0.38605186 0.07140492 0.39825365
0.6173098 0.34120944 0.5474214 0.45284295 0.05716457 0.47534806 0.08496274 0.72551197
-0.5265134 1.1695588 -0.26951683 0.29210085 0.13678814 -0.11940064 -0.7391348 -0.392152
0.016755104 0.3498679 -0.2283296 0.7063275 -0.12680171 0.43333355 -0.3607283 -0.5520542
-0.24570973 0.043365043 -0.56595874 0.06155189 -0.45418337 0.41223344 0.1896225 -0.1126446
-0.037599254 0.56144404 0.70153856 1.2446121 -0.37335026 0.13920632 0.0020954655 -0.012810168
-0.10600905 -0.65505654 0.1960684 -0.13020445 -0.1985481 -0.10960833 0.019214906 -0.662245
0.057541583 0.63556623 -0.81362265 -0.7654177 -0.7832256 0.3686432 0.416076 0.2546344
0.063010916 0.29637277 -0.13493316 -0.1999387 -0.10591286 0.016184889 0.35971153 0.0091551645
-0.45138437 1.4132974 0.109725714 -0.7153895 -0.0077449447 -0.37578577 -0.3361345 -0.8494303
-0.17119294 0.06393298 -1.1288033 -0.9072034 -0.77868843 -0.23443691 -0.2687754 -0.25178528
-0.47923997 0.6570219 -0.4415447 -0.51264334 0.19289602 0.0827514 -0.4994774 0.29438064
-0.1451865 -0.31590262 0.24473317 -0.63544804 -0.034552407 0.17640038 -0.08282922 0.39586928
0.13664737 -0.107504025 0.11187084 -0.17006823 0.9839029 -0.089473665 0.47371626 -0.10513578
-0.35451084 0.2146191 -0.45070988 -0.15912965 0.26278538 -0.30643946 0.94358087 -0.54940253
-0.31555408 0.6533387 0.38525248 -0.39455733 -0.72430485 0.10081618 -0.17437722 -0.20876876
0.35274166 0.09904234 -0.34830436 0.20445111 -0.6035584 -0.27937943 1.328656 -0.02969902
0.2594186 -0.7974225 -0.7480433 0.1078667 0.10835362 0.4239961 -0.05990934 0.25179735
-0.12605667 0.110561766 0.26383102 -0.6255845 -0.8590324 -0.34563655 0.051272675 -1.102434
0.3496119 -0.8652188 0.53795505 0.07341639 -0.8535856 0.095498785 -0.23785563 0.32582128
-0.19880804 -0.47460175 0.095466584 0.14558168 -0.38299286 0.23619814 0.27358925 0.44002688
-0.041335728 -0.16788264 -0.15934552 -0.3056987 1.1055162 0.12705258 -0.17986934 0.27947083
0.7917974 0.6789426 -1.0186175 0.098674126 -0.23419254 0.018080888 -0.1396956 0.16503261
0.78861004 -0.82514447 0.12018371 0.20696816 0.8176888 -0.03272651 -0.1958339 -0.22475256
-0.1227017 0.0912767 -0.061179977 -0.11789004 -0.044255234 -0.15402256 -0.07926121 0.22047462
1.1788504 -0.61146927 -0.18799654 0.1061083 0.139932 0.67647916 0.58700424 0.6769717
0.11819368 0.42679304 0.46308514 0.7514913 0.24244222 -0.31738862 -0.11545635 -0.17154938
0.5296412 0.31271973 0.75105196 0.14351718 -0.0652726 0.065334566 0.6515868 -0.043347284
0.132317 0.1728357 0.06523581 0.30122942 -0.1357976 -0.13416682 0.13552764 -0.61164874
00000000: 47f4 03be 9258 543e 1cc0 3e3e d2fd 833d
00000010: 966d ce3e d2ac 823e 68af 47be 691e 803e
00000020: 7f76 f53e a615 2d3f 32d1 ad3e 6332 aebe
00000030: 9ca5 acbe ed25 08bd 755b 0b3d 5799 1e3f
00000040: 8881 a6be fc9b 833d d972 a53e 77e7 b03f
00000050: 8bad 40be cb5f e53e df2d 1dbf 874e ec3e
00000060: 34ef 2dbf 1641 0cbe 7816 d0bd ef69 8dbe
00000070: b112 0abf 97a8 c53e be3c 923d e7e7 cb3e
00000080: 0408 1e3f 01b3 ae3e cf23 0c3f 08db e73e
00000090: 6525 6a3d d260 f33e f200 ae3d 27bb 393f
000000a0: 95c9 06bf 1ab4 953f 1cfe 89be 3e8e 953e
000000b0: 3112 0c3e 5388 f4bd f037 3dbf 26c8 c8be
000000c0: 0042 893c e321 b33e 3ccf 69be e1d1 343f
000000d0: 4fd8 01be e5dd dd3e 61b1 b8be 6d53 0dbf
000000e0: 559b 7bbe 8b9f 313d ace2 10bf d61d 7c3d
000000f0: b98a e8be 4310 d33e 672c 423e 36b2 e6bd
00000100: ad01 1abd ccba 0f3f 0898 333f 734f 9f3f
00000110: c427 bfbe 1a8c 0e3e 1454 093b bde1 51bc
00000120: 461b d9bd c9b1 27bf 28c6 483e 5154 05be
00000130: 3150 4bbe 557a e0bd 9468 9d3c e388 29bf
00000140: b9b0 6b3d 78b4 223f 9349 50bf 6af2 43bf
00000150: 7981 48bf cdbe bc3e ea07 d53e 715f 823e
00000160: de0b 813d 2cbe 973e eb2b 0abe bbbc 4cbe
00000170: d7e8 d8bd 2c96 843c 1c2c b83e 8bff 153c
00000180: da1b e7be eee6 b43f e0b7 e03d c423 37bf
00000190: 4ec9 fdbb fe66 c0be d219 acbe 4474 59bf
000001a0: 344d 2fbe 4bef 823d a07c 90bf 7b3e 68bf
000001b0: 2058 47bf 3b10 70be ee9c 89be 00ea 80be
000001c0: f15e f5be 9632 283f 2612 e2be 983c 03bf
000001d0: 8986 453e 9179 a93d 80bb ffbe 0fb9 963e
000001e0: c5ab 14be fdbd a1be 559b 7a3e b9ac 22bf
000001f0: d386 0dbd 4da2 343e 5ea2 a9bd 61af ca3e
00000200: 4aed 0b3e 122b dcbd 8a1c e53d 5e26 2ebe
00000210: 0fe1 7b3f f83d b7bd f08a f23e 6e51 d7bd
00000220: 7282 b5be 1cc5 5b3e 72c3 e6be e2f2 22be
00000230: ce8b 863e a2e5 9cbe 848e 713f a5a5 0cbf
00000240: 4e90 a1be 3441 273f d03f c53e 6b03 cabe
00000250: 0b6c 39bf b778 ce3d f18f 32be 7ac7 55be
00000260: 8e9a b43e b6d6 ca3d f354 b2be a25b 513e
00000270: ce82 1abf d20a 8fbe 6611 aa3f 5c4b f3bc
00000280: 84d2 843e e223 4cbf c47f 3fbf 37e9 dc3d
00000290: 81e8 dd3d 0416 d93e 7f63 75bd 95eb 803e
000002a0: 0015 01be 356e e23d dc14 873e 4e26 20bf
000002b0: 8ce9 5bbf 46f7 b0be 4c03 523d 8f1c 8dbf
000002c0: 5500 b33e fb7e 5dbf 6cb7 093f 555b 963d
000002d0: 9684 5abf de94 c33d 6d90 73be 0cd2 a63e
000002e0: 5694 4bbe 00ff f2be fc83 c33d 5d13 153e
000002f0: a417 c4be eddd 713e e413 8c3e 344b e13e
00000300: a74f 29bd 6de9 2bbe 792b 23be 8a84 9cbe
00000310: 8e81 8d3f 121a 023e ab2f 38be cd16 8f3e
00000320: 3cb3 4a3f 2fcf 2d3f 0f62 82bf a915 ca3d
00000330: 2bd0 6fbe 5f1e 943c 5d0c 0fbe 4ffe 283e
00000340: 59e2 493f ab3c 53bf e022 f63d 76ef 533e
00000350: 0e54 513f 3c0c 06bd af88 48be 8925 66be
00000360: 074b fbbd 47ef ba3d db97 7abd 5570 f1bd
00000370: fa44 35bd 17b8 1dbe b453 a2bd 19c4 613e
00000380: 92e4 963f 4089 1cbf 2a82 40be 4f4f d93d
00000390: 564a 0f3e bd2d 2d3f e945 163f 044e 2d3f
000003a0: 870f f23d 9e84 da3e 7f19 ed3e bc61 403f
000003b0: c642 783e c380 a2be 6174 ecbd a4aa 2fbe
000003c0: 9196 073f cd1c a03e f144 403f 2bf6 123e
000003d0: a4ad 85bd 21ce 853d 64ce 263f ec8c 31bd
000003e0: 1c7e 073e d7fb 303e 5a9a 853d be3a 9a3e
000003f0: 870e 0bbe 0763 09be c2c7 0a3e 0395 1cbf

critic.2.bias f4 [64]
-0.27677974 -0.07417176 0.11705369 -0.25026286 0.094791986 -0.055472407 -0.10124473 0.3550256
-0.4294912 0.22894074 0.14287311 0.01672109 -0.023488842 -0.24153262 -0.17492776 -0.109164946
-0.015105034 0.21066871 0.12818833 0.03496216 -0.019890008 -0.39314702 -0.45590603 -0.45980272
-0.16839609 -0.12002161 0.13898906 -0.028380943 -0.15106557 -0.09671612 0.2709474 0.13690765
0.13036168 0.12821555 -0.04533204 -0.09438956 -0.01634536 0.037129205 0.079595774 0.3496386
-0.19229423 -0.294674 0.43720365 0.007867095 0.11659403 -0.2226153 -0.18387888 -0.037356928
-0.24395901 0.5982748 -0.15082091 0.02203237 0.37195385 0.39325234 -0.023257324 -0.27054146
0.06405554 0.31649432 0.34816036 0.1508887 0.14760906 0.118261494 0.1306981 0.17774479
00000000: 13b6 8dbe 5de7 97bd d8b9 ef3d 7422 80be
00000010: 4d22 c23d 0937 63bd 6659 cfbd eac5 b53e
00000020: 45e6 dbbe 716f 6a3e 544d 123e abfa 883c
00000030: ac6b c0bc 5454 77be 4320 33be df91 dfbd
00000040: 1b7b 77bc 8ab9 573e cd43 033e 7b34 0f3d
00000050: 5ff0 a2bc 914a c9be 846c e9be 436b ebbe
00000060: 0670 2cbe e4cd f5bd 2653 0e3e 277f e8bc
00000070: efb0 1abe 1a13 c6bd 9eb9 8a3e 8531 0c3e
00000080: 887d 053e f04a 033e 17ae 39bd 504f c1bd
00000090: b4e6 85bc cb14 183d 1c03 a33d d503 b33e
000000a0: c7e8 44be 83df 96be 28d9 df3e fde4 003c
000000b0: dac8 ee3d 44f5 63be bf4a 3cbe 9403 19bd
000000c0: 64d0 79be 8a28 193f cc70 1abe 3b7d b43c
000000d0: bc70 be3e 5f58 c93e 2586 bebc 6984 8abe
000000e0: 8d2f 833d 8b0b a23e 1342 b23e 9182 1a3e
000000f0: d426 173e 1533 f23d b9d5 053e bb02 363e

critic.4.weight f4 [1, 64]
0.8766793 -0.67345923 -1.8534709 1.1191477 -1.3221656 -1.0714729 0.39465982 -0.10967803
0.4832813 0.47182778 -0.9789321 -1.0343149 0.122210726 0.2235714 0.07019885 -0.42791972
1.7061732 -1.702237 0.9168148 0.47664794 -0.4355703 2.5911634 2.132575 -0.9471032
-0.8985978 1.9868033 -0.5088565 1.0068765 1.5753056 1.140781 0.85744447 0.3532007
-0.15532184 -0.6372574 1.3755236 1.7597176 -0.8815106 -0.9993966 0.26868448 -1.4607213
1.3480235 1.9261211 1.3934863 -0.24731292 -1.3421785 0.4925367 1.407893 0.5896164
-1.0040524 -1.3032048 0.018120166 0.21477123 -1.9504371 -0.94454664 -0.23786189 1.2018844
-1.0006269 0.19334024 0.39132473 1.3503524 0.7675062 1.2461516 -2.157122 0.4004028
00000000: 0e6e 603f d367 2cbf 893e edbf 3b40 8f3f
00000010: b93c a9bf 0626 89bf da10 ca3e e09e e0bd
00000020: a670 f73e 6993 f13e 4b9b 7abf 6e64 84bf
00000030: 9e49 fa3d e7ef 643e 6ac4 8f3d 4b18 dbbe
00000040: e263 da3f e7e2 d9bf 60b4 6a3f 330b f43e
00000050: 1203 dfbe 9fd5 2540 1c7c 0840 5b75 72bf
00000060: 810a 66bf 924f fe3f 6b44 02bf 54e1 803f
00000070: 9da3 c93f 1d05 923f 7b81 5b3f b9d6 b43e
00000080: b00c 1fbe 4d23 23bf 2811 b03f 6d3e e13f
00000090: aeaa 61bf 75d8 7fbf 0391 893e eaf8 babf
000000a0: 098c ac3f 238b f63f c25d b23f 993f 7dbe
000000b0: 81cc abbf c52d fc3e d635 b43f 1af1 163f
000000c0: ca84 80bf 6acf a6bf be70 943c fdec 5b3e
000000d0: eca7 f9bf cfcd 71bf 1192 73be 59d7 993f
000000e0: 8b14 80bf fcfa 453e b75b c83e 59d8 ac3f
000000f0: 497b 443f e581 9f3f 490e 0ac0 9901 cd3e
